<?xml version="1.0"?>
<net name="onnx_Frontend_IR" version="11">
	<layers>
		<layer id="0" name="features" type="Parameter" version="opset1">
			<data shape="?,42" element_type="f32" />
			<output>
				<port id="0" precision="FP32" names="features">
					<dim>-1</dim>
					<dim>42</dim>
				</port>
			</output>
		</layer>
		<layer id="1" name="Constant_3315_compressed" type="Const" version="opset1">
			<data element_type="f16" shape="1" offset="0" size="2" />
			<output>
				<port id="0" precision="FP16">
					<dim>1</dim>
				</port>
			</output>
		</layer>
		<layer id="2" name="Constant_3315" type="Convert" version="opset1">
			<data destination_type="f32" />
			<rt_info>
				<attribute name="decompression" version="0" />
			</rt_info>
			<input>
				<port id="0" precision="FP16">
					<dim>1</dim>
				</port>
			</input>
			<output>
				<port id="1" precision="FP32">
					<dim>1</dim>
				</port>
			</output>
		</layer>
		<layer id="3" name="a_model.success_head.0.weight_compressed" type="Const" version="opset1">
			<data element_type="f16" shape="128, 42" offset="2" size="10752" />
			<output>
				<port id="0" precision="FP16" names="a_model.success_head.0.weight">
					<dim>128</dim>
					<dim>42</dim>
				</port>
			</output>
		</layer>
		<layer id="4" name="a_model.success_head.0.weight" type="Convert" version="opset1">
			<data destination_type="f32" />
			<rt_info>
				<attribute name="decompression" version="0" />
			</rt_info>
			<input>
				<port id="0" precision="FP16">
					<dim>128</dim>
					<dim>42</dim>
				</port>
			</input>
			<output>
				<port id="1" precision="FP32">
					<dim>128</dim>
					<dim>42</dim>
				</port>
			</output>
		</layer>
		<layer id="5" name="a_/model/success_head/success_head.0/Gemm/WithoutBiases" type="MatMul" version="opset1">
			<data transpose_a="false" transpose_b="true" />
			<input>
				<port id="0" precision="FP32">
					<dim>-1</dim>
					<dim>42</dim>
				</port>
				<port id="1" precision="FP32">
					<dim>128</dim>
					<dim>42</dim>
				</port>
			</input>
			<output>
				<port id="2" precision="FP32">
					<dim>-1</dim>
					<dim>128</dim>
				</port>
			</output>
		</layer>
		<layer id="6" name="Constant_3307_compressed" type="Const" version="opset1">
			<data element_type="f16" shape="1, 128" offset="10754" size="256" />
			<output>
				<port id="0" precision="FP16">
					<dim>1</dim>
					<dim>128</dim>
				</port>
			</output>
		</layer>
		<layer id="7" name="Constant_3307" type="Convert" version="opset1">
			<data destination_type="f32" />
			<rt_info>
				<attribute name="decompression" version="0" />
			</rt_info>
			<input>
				<port id="0" precision="FP16">
					<dim>1</dim>
					<dim>128</dim>
				</port>
			</input>
			<output>
				<port id="1" precision="FP32">
					<dim>1</dim>
					<dim>128</dim>
				</port>
			</output>
		</layer>
		<layer id="8" name="a_/model/success_head/success_head.0/Gemm" type="Add" version="opset1">
			<data auto_broadcast="numpy" />
			<input>
				<port id="0" precision="FP32">
					<dim>-1</dim>
					<dim>128</dim>
				</port>
				<port id="1" precision="FP32">
					<dim>1</dim>
					<dim>128</dim>
				</port>
			</input>
			<output>
				<port id="2" precision="FP32" names="a_/model/success_head/success_head.0/Gemm_output_0">
					<dim>-1</dim>
					<dim>128</dim>
				</port>
			</output>
		</layer>
		<layer id="9" name="a_/model/success_head/success_head.1/Relu" type="ReLU" version="opset1">
			<input>
				<port id="0" precision="FP32">
					<dim>-1</dim>
					<dim>128</dim>
				</port>
			</input>
			<output>
				<port id="1" precision="FP32" names="a_/model/success_head/success_head.1/Relu_output_0">
					<dim>-1</dim>
					<dim>128</dim>
				</port>
			</output>
		</layer>
		<layer id="10" name="a_model.success_head.3.weight_compressed" type="Const" version="opset1">
			<data element_type="f16" shape="64, 128" offset="11010" size="16384" />
			<output>
				<port id="0" precision="FP16" names="a_model.success_head.3.weight">
					<dim>64</dim>
					<dim>128</dim>
				</port>
			</output>
		</layer>
		<layer id="11" name="a_model.success_head.3.weight" type="Convert" version="opset1">
			<data destination_type="f32" />
			<rt_info>
				<attribute name="decompression" version="0" />
			</rt_info>
			<input>
				<port id="0" precision="FP16">
					<dim>64</dim>
					<dim>128</dim>
				</port>
			</input>
			<output>
				<port id="1" precision="FP32">
					<dim>64</dim>
					<dim>128</dim>
				</port>
			</output>
		</layer>
		<layer id="12" name="a_/model/success_head/success_head.3/Gemm/WithoutBiases" type="MatMul" version="opset1">
			<data transpose_a="false" transpose_b="true" />
			<input>
				<port id="0" precision="FP32">
					<dim>-1</dim>
					<dim>128</dim>
				</port>
				<port id="1" precision="FP32">
					<dim>64</dim>
					<dim>128</dim>
				</port>
			</input>
			<output>
				<port id="2" precision="FP32">
					<dim>-1</dim>
					<dim>64</dim>
				</port>
			</output>
		</layer>
		<layer id="13" name="Constant_3308_compressed" type="Const" version="opset1">
			<data element_type="f16" shape="1, 64" offset="27394" size="128" />
			<output>
				<port id="0" precision="FP16">
					<dim>1</dim>
					<dim>64</dim>
				</port>
			</output>
		</layer>
		<layer id="14" name="Constant_3308" type="Convert" version="opset1">
			<data destination_type="f32" />
			<rt_info>
				<attribute name="decompression" version="0" />
			</rt_info>
			<input>
				<port id="0" precision="FP16">
					<dim>1</dim>
					<dim>64</dim>
				</port>
			</input>
			<output>
				<port id="1" precision="FP32">
					<dim>1</dim>
					<dim>64</dim>
				</port>
			</output>
		</layer>
		<layer id="15" name="a_/model/success_head/success_head.3/Gemm" type="Add" version="opset1">
			<data auto_broadcast="numpy" />
			<input>
				<port id="0" precision="FP32">
					<dim>-1</dim>
					<dim>64</dim>
				</port>
				<port id="1" precision="FP32">
					<dim>1</dim>
					<dim>64</dim>
				</port>
			</input>
			<output>
				<port id="2" precision="FP32" names="a_/model/success_head/success_head.3/Gemm_output_0">
					<dim>-1</dim>
					<dim>64</dim>
				</port>
			</output>
		</layer>
		<layer id="16" name="a_/model/success_head/success_head.4/Relu" type="ReLU" version="opset1">
			<input>
				<port id="0" precision="FP32">
					<dim>-1</dim>
					<dim>64</dim>
				</port>
			</input>
			<output>
				<port id="1" precision="FP32" names="a_/model/success_head/success_head.4/Relu_output_0">
					<dim>-1</dim>
					<dim>64</dim>
				</port>
			</output>
		</layer>
		<layer id="17" name="a_model.success_head.5.weight" type="Const" version="opset1">
			<data element_type="f32" shape="1, 64" offset="27522" size="256" />
			<output>
				<port id="0" precision="FP32" names="a_model.success_head.5.weight">
					<dim>1</dim>
					<dim>64</dim>
				</port>
			</output>
		</layer>
		<layer id="18" name="a_/model/success_head/success_head.5/Gemm/WithoutBiases" type="MatMul" version="opset1">
			<data transpose_a="false" transpose_b="true" />
			<input>
				<port id="0" precision="FP32">
					<dim>-1</dim>
					<dim>64</dim>
				</port>
				<port id="1" precision="FP32">
					<dim>1</dim>
					<dim>64</dim>
				</port>
			</input>
			<output>
				<port id="2" precision="FP32">
					<dim>-1</dim>
					<dim>1</dim>
				</port>
			</output>
		</layer>
		<layer id="19" name="Constant_3309_compressed" type="Const" version="opset1">
			<data element_type="f16" shape="1, 1" offset="27778" size="2" />
			<output>
				<port id="0" precision="FP16">
					<dim>1</dim>
					<dim>1</dim>
				</port>
			</output>
		</layer>
		<layer id="20" name="Constant_3309" type="Convert" version="opset1">
			<data destination_type="f32" />
			<rt_info>
				<attribute name="decompression" version="0" />
			</rt_info>
			<input>
				<port id="0" precision="FP16">
					<dim>1</dim>
					<dim>1</dim>
				</port>
			</input>
			<output>
				<port id="1" precision="FP32">
					<dim>1</dim>
					<dim>1</dim>
				</port>
			</output>
		</layer>
		<layer id="21" name="a_/model/success_head/success_head.5/Gemm" type="Add" version="opset1">
			<data auto_broadcast="numpy" />
			<input>
				<port id="0" precision="FP32">
					<dim>-1</dim>
					<dim>1</dim>
				</port>
				<port id="1" precision="FP32">
					<dim>1</dim>
					<dim>1</dim>
				</port>
			</input>
			<output>
				<port id="2" precision="FP32" names="a_/model/success_head/success_head.5/Gemm_output_0">
					<dim>-1</dim>
					<dim>1</dim>
				</port>
			</output>
		</layer>
		<layer id="22" name="a_model.time_head.0.weight_compressed" type="Const" version="opset1">
			<data element_type="f16" shape="128, 42" offset="27780" size="10752" />
			<output>
				<port id="0" precision="FP16" names="a_model.time_head.0.weight">
					<dim>128</dim>
					<dim>42</dim>
				</port>
			</output>
		</layer>
		<layer id="23" name="a_model.time_head.0.weight" type="Convert" version="opset1">
			<data destination_type="f32" />
			<rt_info>
				<attribute name="decompression" version="0" />
			</rt_info>
			<input>
				<port id="0" precision="FP16">
					<dim>128</dim>
					<dim>42</dim>
				</port>
			</input>
			<output>
				<port id="1" precision="FP32">
					<dim>128</dim>
					<dim>42</dim>
				</port>
			</output>
		</layer>
		<layer id="24" name="a_/model/time_head/time_head.0/Gemm/WithoutBiases" type="MatMul" version="opset1">
			<data transpose_a="false" transpose_b="true" />
			<input>
				<port id="0" precision="FP32">
					<dim>-1</dim>
					<dim>42</dim>
				</port>
				<port id="1" precision="FP32">
					<dim>128</dim>
					<dim>42</dim>
				</port>
			</input>
			<output>
				<port id="2" precision="FP32">
					<dim>-1</dim>
					<dim>128</dim>
				</port>
			</output>
		</layer>
		<layer id="25" name="Constant_3310_compressed" type="Const" version="opset1">
			<data element_type="f16" shape="1, 128" offset="38532" size="256" />
			<output>
				<port id="0" precision="FP16">
					<dim>1</dim>
					<dim>128</dim>
				</port>
			</output>
		</layer>
		<layer id="26" name="Constant_3310" type="Convert" version="opset1">
			<data destination_type="f32" />
			<rt_info>
				<attribute name="decompression" version="0" />
			</rt_info>
			<input>
				<port id="0" precision="FP16">
					<dim>1</dim>
					<dim>128</dim>
				</port>
			</input>
			<output>
				<port id="1" precision="FP32">
					<dim>1</dim>
					<dim>128</dim>
				</port>
			</output>
		</layer>
		<layer id="27" name="a_/model/time_head/time_head.0/Gemm" type="Add" version="opset1">
			<data auto_broadcast="numpy" />
			<input>
				<port id="0" precision="FP32">
					<dim>-1</dim>
					<dim>128</dim>
				</port>
				<port id="1" precision="FP32">
					<dim>1</dim>
					<dim>128</dim>
				</port>
			</input>
			<output>
				<port id="2" precision="FP32" names="a_/model/time_head/time_head.0/Gemm_output_0">
					<dim>-1</dim>
					<dim>128</dim>
				</port>
			</output>
		</layer>
		<layer id="28" name="a_/model/time_head/time_head.1/Relu" type="ReLU" version="opset1">
			<input>
				<port id="0" precision="FP32">
					<dim>-1</dim>
					<dim>128</dim>
				</port>
			</input>
			<output>
				<port id="1" precision="FP32" names="a_/model/time_head/time_head.1/Relu_output_0">
					<dim>-1</dim>
					<dim>128</dim>
				</port>
			</output>
		</layer>
		<layer id="29" name="a_model.time_head.3.weight_compressed" type="Const" version="opset1">
			<data element_type="f16" shape="64, 128" offset="38788" size="16384" />
			<output>
				<port id="0" precision="FP16" names="a_model.time_head.3.weight">
					<dim>64</dim>
					<dim>128</dim>
				</port>
			</output>
		</layer>
		<layer id="30" name="a_model.time_head.3.weight" type="Convert" version="opset1">
			<data destination_type="f32" />
			<rt_info>
				<attribute name="decompression" version="0" />
			</rt_info>
			<input>
				<port id="0" precision="FP16">
					<dim>64</dim>
					<dim>128</dim>
				</port>
			</input>
			<output>
				<port id="1" precision="FP32">
					<dim>64</dim>
					<dim>128</dim>
				</port>
			</output>
		</layer>
		<layer id="31" name="a_/model/time_head/time_head.3/Gemm/WithoutBiases" type="MatMul" version="opset1">
			<data transpose_a="false" transpose_b="true" />
			<input>
				<port id="0" precision="FP32">
					<dim>-1</dim>
					<dim>128</dim>
				</port>
				<port id="1" precision="FP32">
					<dim>64</dim>
					<dim>128</dim>
				</port>
			</input>
			<output>
				<port id="2" precision="FP32">
					<dim>-1</dim>
					<dim>64</dim>
				</port>
			</output>
		</layer>
		<layer id="32" name="Constant_3311_compressed" type="Const" version="opset1">
			<data element_type="f16" shape="1, 64" offset="55172" size="128" />
			<output>
				<port id="0" precision="FP16">
					<dim>1</dim>
					<dim>64</dim>
				</port>
			</output>
		</layer>
		<layer id="33" name="Constant_3311" type="Convert" version="opset1">
			<data destination_type="f32" />
			<rt_info>
				<attribute name="decompression" version="0" />
			</rt_info>
			<input>
				<port id="0" precision="FP16">
					<dim>1</dim>
					<dim>64</dim>
				</port>
			</input>
			<output>
				<port id="1" precision="FP32">
					<dim>1</dim>
					<dim>64</dim>
				</port>
			</output>
		</layer>
		<layer id="34" name="a_/model/time_head/time_head.3/Gemm" type="Add" version="opset1">
			<data auto_broadcast="numpy" />
			<input>
				<port id="0" precision="FP32">
					<dim>-1</dim>
					<dim>64</dim>
				</port>
				<port id="1" precision="FP32">
					<dim>1</dim>
					<dim>64</dim>
				</port>
			</input>
			<output>
				<port id="2" precision="FP32" names="a_/model/time_head/time_head.3/Gemm_output_0">
					<dim>-1</dim>
					<dim>64</dim>
				</port>
			</output>
		</layer>
		<layer id="35" name="a_/model/time_head/time_head.4/Relu" type="ReLU" version="opset1">
			<input>
				<port id="0" precision="FP32">
					<dim>-1</dim>
					<dim>64</dim>
				</port>
			</input>
			<output>
				<port id="1" precision="FP32" names="a_/model/time_head/time_head.4/Relu_output_0">
					<dim>-1</dim>
					<dim>64</dim>
				</port>
			</output>
		</layer>
		<layer id="36" name="a_model.time_head.5.weight_compressed" type="Const" version="opset1">
			<data element_type="f16" shape="1, 64" offset="55300" size="128" />
			<output>
				<port id="0" precision="FP16" names="a_model.time_head.5.weight">
					<dim>1</dim>
					<dim>64</dim>
				</port>
			</output>
		</layer>
		<layer id="37" name="a_model.time_head.5.weight" type="Convert" version="opset1">
			<data destination_type="f32" />
			<rt_info>
				<attribute name="decompression" version="0" />
			</rt_info>
			<input>
				<port id="0" precision="FP16">
					<dim>1</dim>
					<dim>64</dim>
				</port>
			</input>
			<output>
				<port id="1" precision="FP32">
					<dim>1</dim>
					<dim>64</dim>
				</port>
			</output>
		</layer>
		<layer id="38" name="a_/model/time_head/time_head.5/Gemm/WithoutBiases" type="MatMul" version="opset1">
			<data transpose_a="false" transpose_b="true" />
			<input>
				<port id="0" precision="FP32">
					<dim>-1</dim>
					<dim>64</dim>
				</port>
				<port id="1" precision="FP32">
					<dim>1</dim>
					<dim>64</dim>
				</port>
			</input>
			<output>
				<port id="2" precision="FP32">
					<dim>-1</dim>
					<dim>1</dim>
				</port>
			</output>
		</layer>
		<layer id="39" name="Constant_3312" type="Const" version="opset1">
			<data element_type="f32" shape="1, 1" offset="55428" size="4" />
			<output>
				<port id="0" precision="FP32">
					<dim>1</dim>
					<dim>1</dim>
				</port>
			</output>
		</layer>
		<layer id="40" name="a_/model/time_head/time_head.5/Gemm" type="Add" version="opset1">
			<data auto_broadcast="numpy" />
			<input>
				<port id="0" precision="FP32">
					<dim>-1</dim>
					<dim>1</dim>
				</port>
				<port id="1" precision="FP32">
					<dim>1</dim>
					<dim>1</dim>
				</port>
			</input>
			<output>
				<port id="2" precision="FP32" names="a_/model/time_head/time_head.5/Gemm_output_0">
					<dim>-1</dim>
					<dim>1</dim>
				</port>
			</output>
		</layer>
		<layer id="41" name="a_/model/Concat" type="Concat" version="opset1">
			<data axis="1" />
			<input>
				<port id="0" precision="FP32">
					<dim>-1</dim>
					<dim>1</dim>
				</port>
				<port id="1" precision="FP32">
					<dim>-1</dim>
					<dim>1</dim>
				</port>
			</input>
			<output>
				<port id="2" precision="FP32" names="a_/model/Concat_output_0">
					<dim>-1</dim>
					<dim>2</dim>
				</port>
			</output>
		</layer>
		<layer id="42" name="Constant_3313_compressed" type="Const" version="opset1">
			<data element_type="f16" shape="1, 2" offset="55432" size="4" />
			<output>
				<port id="0" precision="FP16">
					<dim>1</dim>
					<dim>2</dim>
				</port>
			</output>
		</layer>
		<layer id="43" name="Constant_3313" type="Convert" version="opset1">
			<data destination_type="f32" />
			<rt_info>
				<attribute name="decompression" version="0" />
			</rt_info>
			<input>
				<port id="0" precision="FP16">
					<dim>1</dim>
					<dim>2</dim>
				</port>
			</input>
			<output>
				<port id="1" precision="FP32">
					<dim>1</dim>
					<dim>2</dim>
				</port>
			</output>
		</layer>
		<layer id="44" name="a_/Mul" type="Multiply" version="opset1">
			<data auto_broadcast="numpy" />
			<input>
				<port id="0" precision="FP32">
					<dim>-1</dim>
					<dim>2</dim>
				</port>
				<port id="1" precision="FP32">
					<dim>1</dim>
					<dim>2</dim>
				</port>
			</input>
			<output>
				<port id="2" precision="FP32" names="a_/Mul_output_0">
					<dim>-1</dim>
					<dim>2</dim>
				</port>
			</output>
		</layer>
		<layer id="45" name="Constant_3314_compressed" type="Const" version="opset1">
			<data element_type="f16" shape="1, 2" offset="55436" size="4" />
			<output>
				<port id="0" precision="FP16">
					<dim>1</dim>
					<dim>2</dim>
				</port>
			</output>
		</layer>
		<layer id="46" name="Constant_3314" type="Convert" version="opset1">
			<data destination_type="f32" />
			<rt_info>
				<attribute name="decompression" version="0" />
			</rt_info>
			<input>
				<port id="0" precision="FP16">
					<dim>1</dim>
					<dim>2</dim>
				</port>
			</input>
			<output>
				<port id="1" precision="FP32">
					<dim>1</dim>
					<dim>2</dim>
				</port>
			</output>
		</layer>
		<layer id="47" name="a_/Add" type="Add" version="opset1">
			<data auto_broadcast="numpy" />
			<input>
				<port id="0" precision="FP32">
					<dim>-1</dim>
					<dim>2</dim>
				</port>
				<port id="1" precision="FP32">
					<dim>1</dim>
					<dim>2</dim>
				</port>
			</input>
			<output>
				<port id="2" precision="FP32" names="a_/Add_output_0">
					<dim>-1</dim>
					<dim>2</dim>
				</port>
			</output>
		</layer>
		<layer id="48" name="a_/Constant" type="Const" version="opset1">
			<data element_type="i64" shape="" offset="55440" size="8" />
			<output>
				<port id="0" precision="I64" names="a_/Constant_output_0" />
			</output>
		</layer>
		<layer id="49" name="Constant_140" type="Const" version="opset1">
			<data element_type="i64" shape="" offset="55448" size="8" />
			<output>
				<port id="0" precision="I64" />
			</output>
		</layer>
		<layer id="50" name="a_/Gather" type="Gather" version="opset8">
			<data batch_dims="0" />
			<input>
				<port id="0" precision="FP32">
					<dim>-1</dim>
					<dim>2</dim>
				</port>
				<port id="1" precision="I64" />
				<port id="2" precision="I64" />
			</input>
			<output>
				<port id="3" precision="FP32" names="a_/Gather_output_0">
					<dim>-1</dim>
				</port>
			</output>
		</layer>
		<layer id="51" name="a_/Sub" type="Subtract" version="opset1">
			<data auto_broadcast="numpy" />
			<input>
				<port id="0" precision="FP32">
					<dim>1</dim>
				</port>
				<port id="1" precision="FP32">
					<dim>-1</dim>
				</port>
			</input>
			<output>
				<port id="2" precision="FP32" names="a_/Sub_output_0">
					<dim>-1</dim>
				</port>
			</output>
		</layer>
		<layer id="52" name="a_/Clip" type="Clamp" version="opset1">
			<data min="0" max="100" />
			<input>
				<port id="0" precision="FP32">
					<dim>-1</dim>
				</port>
			</input>
			<output>
				<port id="1" precision="FP32" names="a_/Clip_output_0">
					<dim>-1</dim>
				</port>
			</output>
		</layer>
		<layer id="53" name="a_/Constant_6" type="Const" version="opset1">
			<data element_type="i64" shape="1" offset="55448" size="8" />
			<output>
				<port id="0" precision="I64" names="a_/Constant_6_output_0">
					<dim>1</dim>
				</port>
			</output>
		</layer>
		<layer id="54" name="a_/Unsqueeze" type="Unsqueeze" version="opset1">
			<input>
				<port id="0" precision="FP32">
					<dim>-1</dim>
				</port>
				<port id="1" precision="I64">
					<dim>1</dim>
				</port>
			</input>
			<output>
				<port id="2" precision="FP32" names="a_/Unsqueeze_output_0">
					<dim>-1</dim>
					<dim>1</dim>
				</port>
			</output>
		</layer>
		<layer id="55" name="a_/model/Constant" type="Const" version="opset1">
			<data element_type="i64" shape="" offset="55448" size="8" />
			<output>
				<port id="0" precision="I64" names="a_/model/Constant_output_0" />
			</output>
		</layer>
		<layer id="56" name="Constant_142" type="Const" version="opset1">
			<data element_type="i64" shape="" offset="55448" size="8" />
			<output>
				<port id="0" precision="I64" />
			</output>
		</layer>
		<layer id="57" name="a_/Gather_1" type="Gather" version="opset8">
			<data batch_dims="0" />
			<input>
				<port id="0" precision="FP32">
					<dim>-1</dim>
					<dim>2</dim>
				</port>
				<port id="1" precision="I64" />
				<port id="2" precision="I64" />
			</input>
			<output>
				<port id="3" precision="FP32" names="a_/Gather_1_output_0">
					<dim>-1</dim>
				</port>
			</output>
		</layer>
		<layer id="58" name="a_/Exp" type="Exp" version="opset1">
			<input>
				<port id="0" precision="FP32">
					<dim>-1</dim>
				</port>
			</input>
			<output>
				<port id="1" precision="FP32" names="a_/Exp_output_0">
					<dim>-1</dim>
				</port>
			</output>
		</layer>
		<layer id="59" name="Constant_3316_compressed" type="Const" version="opset1">
			<data element_type="f16" shape="1" offset="55456" size="2" />
			<output>
				<port id="0" precision="FP16">
					<dim>1</dim>
				</port>
			</output>
		</layer>
		<layer id="60" name="Constant_3316" type="Convert" version="opset1">
			<data destination_type="f32" />
			<rt_info>
				<attribute name="decompression" version="0" />
			</rt_info>
			<input>
				<port id="0" precision="FP16">
					<dim>1</dim>
				</port>
			</input>
			<output>
				<port id="1" precision="FP32">
					<dim>1</dim>
				</port>
			</output>
		</layer>
		<layer id="61" name="a_/Sub_1" type="Add" version="opset1">
			<data auto_broadcast="numpy" />
			<input>
				<port id="0" precision="FP32">
					<dim>-1</dim>
				</port>
				<port id="1" precision="FP32">
					<dim>1</dim>
				</port>
			</input>
			<output>
				<port id="2" precision="FP32" names="a_/Sub_1_output_0">
					<dim>-1</dim>
				</port>
			</output>
		</layer>
		<layer id="62" name="a_/Clip_1" type="Clamp" version="opset1">
			<data min="0.0099999997764825821" max="3.4028234663852886e+38" />
			<input>
				<port id="0" precision="FP32">
					<dim>-1</dim>
				</port>
			</input>
			<output>
				<port id="1" precision="FP32" names="a_/Clip_1_output_0">
					<dim>-1</dim>
				</port>
			</output>
		</layer>
		<layer id="63" name="a_/Constant_7" type="Const" version="opset1">
			<data element_type="i64" shape="1" offset="55448" size="8" />
			<output>
				<port id="0" precision="I64" names="a_/Constant_7_output_0">
					<dim>1</dim>
				</port>
			</output>
		</layer>
		<layer id="64" name="a_/Unsqueeze_1" type="Unsqueeze" version="opset1">
			<input>
				<port id="0" precision="FP32">
					<dim>-1</dim>
				</port>
				<port id="1" precision="I64">
					<dim>1</dim>
				</port>
			</input>
			<output>
				<port id="2" precision="FP32" names="a_/Unsqueeze_1_output_0">
					<dim>-1</dim>
					<dim>1</dim>
				</port>
			</output>
		</layer>
		<layer id="65" name="a_/Concat" type="Concat" version="opset1">
			<data axis="1" />
			<input>
				<port id="0" precision="FP32">
					<dim>-1</dim>
					<dim>1</dim>
				</port>
				<port id="1" precision="FP32">
					<dim>-1</dim>
					<dim>1</dim>
				</port>
			</input>
			<output>
				<port id="2" precision="FP32" names="a_predictions">
					<dim>-1</dim>
					<dim>2</dim>
				</port>
			</output>
		</layer>
		<layer id="66" name="b_success_head._operators.0.leaf_nodes_compressed" type="Const" version="opset1">
			<data element_type="f16" shape="28800, 1" offset="55458" size="57600" />
			<output>
				<port id="0" precision="FP16" names="b_success_head._operators.0.leaf_nodes">
					<dim>28800</dim>
					<dim>1</dim>
				</port>
			</output>
		</layer>
		<layer id="67" name="b_success_head._operators.0.leaf_nodes" type="Convert" version="opset1">
			<data destination_type="f32" />
			<rt_info>
				<attribute name="decompression" version="0" />
			</rt_info>
			<input>
				<port id="0" precision="FP16">
					<dim>28800</dim>
					<dim>1</dim>
				</port>
			</input>
			<output>
				<port id="1" precision="FP32">
					<dim>28800</dim>
					<dim>1</dim>
				</port>
			</output>
		</layer>
		<layer id="68" name="b_success_head._operators.0.root_nodes" type="Const" version="opset1">
			<data element_type="i64" shape="450" offset="113058" size="3600" />
			<output>
				<port id="0" precision="I64" names="b_success_head._operators.0.root_nodes">
					<dim>450</dim>
				</port>
			</output>
		</layer>
		<layer id="69" name="Constant_29" type="Const" version="opset1">
			<data element_type="i64" shape="" offset="55448" size="8" />
			<output>
				<port id="0" precision="I64" />
			</output>
		</layer>
		<layer id="70" name="b_/success_head/_operators.0/Gather" type="Gather" version="opset8">
			<data batch_dims="0" />
			<input>
				<port id="0" precision="FP32">
					<dim>-1</dim>
					<dim>42</dim>
				</port>
				<port id="1" precision="I64">
					<dim>450</dim>
				</port>
				<port id="2" precision="I64" />
			</input>
			<output>
				<port id="3" precision="FP32" names="b_/success_head/_operators.0/Gather_output_0">
					<dim>-1</dim>
					<dim>450</dim>
				</port>
			</output>
		</layer>
		<layer id="71" name="Constant_3317" type="Const" version="opset1">
			<data element_type="f32" shape="1, 450" offset="116658" size="1800" />
			<output>
				<port id="0" precision="FP32">
					<dim>1</dim>
					<dim>450</dim>
				</port>
			</output>
		</layer>
		<layer id="72" name="b_/success_head/_operators.0/LessOrEqual" type="LessEqual" version="opset1">
			<data auto_broadcast="numpy" />
			<input>
				<port id="0" precision="FP32">
					<dim>-1</dim>
					<dim>450</dim>
				</port>
				<port id="1" precision="FP32">
					<dim>1</dim>
					<dim>450</dim>
				</port>
			</input>
			<output>
				<port id="2" precision="BOOL" names="b_/success_head/_operators.0/LessOrEqual_output_0">
					<dim>-1</dim>
					<dim>450</dim>
				</port>
			</output>
		</layer>
		<layer id="73" name="b_/success_head/_operators.0/Cast" type="Convert" version="opset1">
			<data destination_type="i64" />
			<input>
				<port id="0" precision="BOOL">
					<dim>-1</dim>
					<dim>450</dim>
				</port>
			</input>
			<output>
				<port id="1" precision="I64" names="b_/success_head/_operators.0/Cast_output_0">
					<dim>-1</dim>
					<dim>450</dim>
				</port>
			</output>
		</layer>
		<layer id="74" name="Constant_3318" type="Const" version="opset1">
			<data element_type="i64" shape="1, 450" offset="118458" size="3600" />
			<output>
				<port id="0" precision="I64">
					<dim>1</dim>
					<dim>450</dim>
				</port>
			</output>
		</layer>
		<layer id="75" name="b_/success_head/_operators.0/Add" type="Add" version="opset1">
			<data auto_broadcast="numpy" />
			<input>
				<port id="0" precision="I64">
					<dim>-1</dim>
					<dim>450</dim>
				</port>
				<port id="1" precision="I64">
					<dim>1</dim>
					<dim>450</dim>
				</port>
			</input>
			<output>
				<port id="2" precision="I64" names="b_/success_head/_operators.0/Add_output_0">
					<dim>-1</dim>
					<dim>450</dim>
				</port>
			</output>
		</layer>
		<layer id="76" name="Constant_812" type="Const" version="opset1">
			<data element_type="i64" shape="1" offset="122058" size="8" />
			<rt_info>
				<attribute name="precise" version="0" />
			</rt_info>
			<output>
				<port id="0" precision="I64">
					<dim>1</dim>
				</port>
			</output>
		</layer>
		<layer id="77" name="b_/success_head/_operators.0/Reshape" type="Reshape" version="opset1">
			<data special_zero="true" />
			<input>
				<port id="0" precision="I64">
					<dim>-1</dim>
					<dim>450</dim>
				</port>
				<port id="1" precision="I64">
					<dim>1</dim>
				</port>
			</input>
			<output>
				<port id="2" precision="I64" names="b_/success_head/_operators.0/Reshape_output_0">
					<dim>-1</dim>
				</port>
			</output>
		</layer>
		<layer id="78" name="Constant_3319" type="Const" version="opset1">
			<data element_type="i64" shape="1" offset="122066" size="8" />
			<output>
				<port id="0" precision="I64">
					<dim>1</dim>
				</port>
			</output>
		</layer>
		<layer id="79" name="b_/success_head/_operators.0/Mul" type="Multiply" version="opset1">
			<data auto_broadcast="numpy" />
			<input>
				<port id="0" precision="I64">
					<dim>-1</dim>
				</port>
				<port id="1" precision="I64">
					<dim>1</dim>
				</port>
			</input>
			<output>
				<port id="2" precision="I64" names="b_/success_head/_operators.0/Mul_output_0">
					<dim>-1</dim>
				</port>
			</output>
		</layer>
		<layer id="80" name="b_success_head._operators.0.nodes.0" type="Const" version="opset1">
			<data element_type="i64" shape="900" offset="122074" size="7200" />
			<output>
				<port id="0" precision="I64" names="b_success_head._operators.0.nodes.0">
					<dim>900</dim>
				</port>
			</output>
		</layer>
		<layer id="81" name="Constant_119" type="Const" version="opset1">
			<data element_type="i64" shape="" offset="55440" size="8" />
			<output>
				<port id="0" precision="I64" />
			</output>
		</layer>
		<layer id="82" name="b_/success_head/_operators.0/Gather_1" type="Gather" version="opset8">
			<data batch_dims="0" />
			<input>
				<port id="0" precision="I64">
					<dim>900</dim>
				</port>
				<port id="1" precision="I64">
					<dim>-1</dim>
				</port>
				<port id="2" precision="I64" />
			</input>
			<output>
				<port id="3" precision="I64" names="b_/success_head/_operators.0/Gather_1_output_0">
					<dim>-1</dim>
				</port>
			</output>
		</layer>
		<layer id="83" name="b_/success_head/_operators.0/Constant_1" type="Const" version="opset1">
			<data element_type="i64" shape="2" offset="129274" size="16" />
			<rt_info>
				<attribute name="precise" version="0" />
			</rt_info>
			<output>
				<port id="0" precision="I64" names="b_/success_head/_operators.0/Constant_1_output_0">
					<dim>2</dim>
				</port>
			</output>
		</layer>
		<layer id="84" name="b_/success_head/_operators.0/Reshape_1" type="Reshape" version="opset1">
			<data special_zero="true" />
			<input>
				<port id="0" precision="I64">
					<dim>-1</dim>
				</port>
				<port id="1" precision="I64">
					<dim>2</dim>
				</port>
			</input>
			<output>
				<port id="2" precision="I64" names="b_/success_head/_operators.0/Reshape_1_output_0">
					<dim>-1</dim>
					<dim>450</dim>
				</port>
			</output>
		</layer>
		<layer id="85" name="b_/success_head/_operators.0/GatherElements" type="GatherElements" version="opset6">
			<data axis="1" />
			<input>
				<port id="0" precision="FP32">
					<dim>-1</dim>
					<dim>42</dim>
				</port>
				<port id="1" precision="I64">
					<dim>-1</dim>
					<dim>450</dim>
				</port>
			</input>
			<output>
				<port id="2" precision="FP32" names="b_/success_head/_operators.0/GatherElements_output_0">
					<dim>-1</dim>
					<dim>450</dim>
				</port>
			</output>
		</layer>
		<layer id="86" name="Constant_813" type="Const" version="opset1">
			<data element_type="i64" shape="1" offset="122058" size="8" />
			<rt_info>
				<attribute name="precise" version="0" />
			</rt_info>
			<output>
				<port id="0" precision="I64">
					<dim>1</dim>
				</port>
			</output>
		</layer>
		<layer id="87" name="b_/success_head/_operators.0/Reshape_2" type="Reshape" version="opset1">
			<data special_zero="true" />
			<input>
				<port id="0" precision="FP32">
					<dim>-1</dim>
					<dim>450</dim>
				</port>
				<port id="1" precision="I64">
					<dim>1</dim>
				</port>
			</input>
			<output>
				<port id="2" precision="FP32" names="b_/success_head/_operators.0/Reshape_2_output_0">
					<dim>-1</dim>
				</port>
			</output>
		</layer>
		<layer id="88" name="b_success_head._operators.0.biases.0_compressed" type="Const" version="opset1">
			<data element_type="f16" shape="900" offset="129290" size="1800" />
			<output>
				<port id="0" precision="FP16" names="b_success_head._operators.0.biases.0">
					<dim>900</dim>
				</port>
			</output>
		</layer>
		<layer id="89" name="b_success_head._operators.0.biases.0" type="Convert" version="opset1">
			<data destination_type="f32" />
			<rt_info>
				<attribute name="decompression" version="0" />
			</rt_info>
			<input>
				<port id="0" precision="FP16">
					<dim>900</dim>
				</port>
			</input>
			<output>
				<port id="1" precision="FP32">
					<dim>900</dim>
				</port>
			</output>
		</layer>
		<layer id="90" name="Constant_123" type="Const" version="opset1">
			<data element_type="i64" shape="" offset="55440" size="8" />
			<output>
				<port id="0" precision="I64" />
			</output>
		</layer>
		<layer id="91" name="b_/success_head/_operators.0/Gather_2" type="Gather" version="opset8">
			<data batch_dims="0" />
			<input>
				<port id="0" precision="FP32">
					<dim>900</dim>
				</port>
				<port id="1" precision="I64">
					<dim>-1</dim>
				</port>
				<port id="2" precision="I64" />
			</input>
			<output>
				<port id="3" precision="FP32" names="b_/success_head/_operators.0/Gather_2_output_0">
					<dim>-1</dim>
				</port>
			</output>
		</layer>
		<layer id="92" name="b_/success_head/_operators.0/LessOrEqual_1" type="LessEqual" version="opset1">
			<data auto_broadcast="numpy" />
			<input>
				<port id="0" precision="FP32">
					<dim>-1</dim>
				</port>
				<port id="1" precision="FP32">
					<dim>-1</dim>
				</port>
			</input>
			<output>
				<port id="2" precision="BOOL" names="b_/success_head/_operators.0/LessOrEqual_1_output_0">
					<dim>-1</dim>
				</port>
			</output>
		</layer>
		<layer id="93" name="b_/success_head/_operators.0/Cast_1" type="Convert" version="opset1">
			<data destination_type="i64" />
			<input>
				<port id="0" precision="BOOL">
					<dim>-1</dim>
				</port>
			</input>
			<output>
				<port id="1" precision="I64" names="b_/success_head/_operators.0/Cast_1_output_0">
					<dim>-1</dim>
				</port>
			</output>
		</layer>
		<layer id="94" name="b_/success_head/_operators.0/Add_1" type="Add" version="opset1">
			<data auto_broadcast="numpy" />
			<input>
				<port id="0" precision="I64">
					<dim>-1</dim>
				</port>
				<port id="1" precision="I64">
					<dim>-1</dim>
				</port>
			</input>
			<output>
				<port id="2" precision="I64" names="b_/success_head/_operators.0/Add_1_output_0">
					<dim>-1</dim>
				</port>
			</output>
		</layer>
		<layer id="95" name="Constant_3320" type="Const" version="opset1">
			<data element_type="i64" shape="1" offset="122066" size="8" />
			<output>
				<port id="0" precision="I64">
					<dim>1</dim>
				</port>
			</output>
		</layer>
		<layer id="96" name="b_/success_head/_operators.0/Mul_1" type="Multiply" version="opset1">
			<data auto_broadcast="numpy" />
			<input>
				<port id="0" precision="I64">
					<dim>-1</dim>
				</port>
				<port id="1" precision="I64">
					<dim>1</dim>
				</port>
			</input>
			<output>
				<port id="2" precision="I64" names="b_/success_head/_operators.0/Mul_1_output_0">
					<dim>-1</dim>
				</port>
			</output>
		</layer>
		<layer id="97" name="b_success_head._operators.0.nodes.1" type="Const" version="opset1">
			<data element_type="i64" shape="1800" offset="131090" size="14400" />
			<output>
				<port id="0" precision="I64" names="b_success_head._operators.0.nodes.1">
					<dim>1800</dim>
				</port>
			</output>
		</layer>
		<layer id="98" name="Constant_164" type="Const" version="opset1">
			<data element_type="i64" shape="" offset="55440" size="8" />
			<output>
				<port id="0" precision="I64" />
			</output>
		</layer>
		<layer id="99" name="b_/success_head/_operators.0/Gather_3" type="Gather" version="opset8">
			<data batch_dims="0" />
			<input>
				<port id="0" precision="I64">
					<dim>1800</dim>
				</port>
				<port id="1" precision="I64">
					<dim>-1</dim>
				</port>
				<port id="2" precision="I64" />
			</input>
			<output>
				<port id="3" precision="I64" names="b_/success_head/_operators.0/Gather_3_output_0">
					<dim>-1</dim>
				</port>
			</output>
		</layer>
		<layer id="100" name="b_/success_head/_operators.0/Constant_4" type="Const" version="opset1">
			<data element_type="i64" shape="2" offset="129274" size="16" />
			<rt_info>
				<attribute name="precise" version="0" />
			</rt_info>
			<output>
				<port id="0" precision="I64" names="b_/success_head/_operators.0/Constant_4_output_0">
					<dim>2</dim>
				</port>
			</output>
		</layer>
		<layer id="101" name="b_/success_head/_operators.0/Reshape_3" type="Reshape" version="opset1">
			<data special_zero="true" />
			<input>
				<port id="0" precision="I64">
					<dim>-1</dim>
				</port>
				<port id="1" precision="I64">
					<dim>2</dim>
				</port>
			</input>
			<output>
				<port id="2" precision="I64" names="b_/success_head/_operators.0/Reshape_3_output_0">
					<dim>-1</dim>
					<dim>450</dim>
				</port>
			</output>
		</layer>
		<layer id="102" name="b_/success_head/_operators.0/GatherElements_1" type="GatherElements" version="opset6">
			<data axis="1" />
			<input>
				<port id="0" precision="FP32">
					<dim>-1</dim>
					<dim>42</dim>
				</port>
				<port id="1" precision="I64">
					<dim>-1</dim>
					<dim>450</dim>
				</port>
			</input>
			<output>
				<port id="2" precision="FP32" names="b_/success_head/_operators.0/GatherElements_1_output_0">
					<dim>-1</dim>
					<dim>450</dim>
				</port>
			</output>
		</layer>
		<layer id="103" name="Constant_814" type="Const" version="opset1">
			<data element_type="i64" shape="1" offset="122058" size="8" />
			<rt_info>
				<attribute name="precise" version="0" />
			</rt_info>
			<output>
				<port id="0" precision="I64">
					<dim>1</dim>
				</port>
			</output>
		</layer>
		<layer id="104" name="b_/success_head/_operators.0/Reshape_4" type="Reshape" version="opset1">
			<data special_zero="true" />
			<input>
				<port id="0" precision="FP32">
					<dim>-1</dim>
					<dim>450</dim>
				</port>
				<port id="1" precision="I64">
					<dim>1</dim>
				</port>
			</input>
			<output>
				<port id="2" precision="FP32" names="b_/success_head/_operators.0/Reshape_4_output_0">
					<dim>-1</dim>
				</port>
			</output>
		</layer>
		<layer id="105" name="b_success_head._operators.0.biases.1_compressed" type="Const" version="opset1">
			<data element_type="f16" shape="1800" offset="145490" size="3600" />
			<output>
				<port id="0" precision="FP16" names="b_success_head._operators.0.biases.1">
					<dim>1800</dim>
				</port>
			</output>
		</layer>
		<layer id="106" name="b_success_head._operators.0.biases.1" type="Convert" version="opset1">
			<data destination_type="f32" />
			<rt_info>
				<attribute name="decompression" version="0" />
			</rt_info>
			<input>
				<port id="0" precision="FP16">
					<dim>1800</dim>
				</port>
			</input>
			<output>
				<port id="1" precision="FP32">
					<dim>1800</dim>
				</port>
			</output>
		</layer>
		<layer id="107" name="Constant_168" type="Const" version="opset1">
			<data element_type="i64" shape="" offset="55440" size="8" />
			<output>
				<port id="0" precision="I64" />
			</output>
		</layer>
		<layer id="108" name="b_/success_head/_operators.0/Gather_4" type="Gather" version="opset8">
			<data batch_dims="0" />
			<input>
				<port id="0" precision="FP32">
					<dim>1800</dim>
				</port>
				<port id="1" precision="I64">
					<dim>-1</dim>
				</port>
				<port id="2" precision="I64" />
			</input>
			<output>
				<port id="3" precision="FP32" names="b_/success_head/_operators.0/Gather_4_output_0">
					<dim>-1</dim>
				</port>
			</output>
		</layer>
		<layer id="109" name="b_/success_head/_operators.0/LessOrEqual_2" type="LessEqual" version="opset1">
			<data auto_broadcast="numpy" />
			<input>
				<port id="0" precision="FP32">
					<dim>-1</dim>
				</port>
				<port id="1" precision="FP32">
					<dim>-1</dim>
				</port>
			</input>
			<output>
				<port id="2" precision="BOOL" names="b_/success_head/_operators.0/LessOrEqual_2_output_0">
					<dim>-1</dim>
				</port>
			</output>
		</layer>
		<layer id="110" name="b_/success_head/_operators.0/Cast_2" type="Convert" version="opset1">
			<data destination_type="i64" />
			<input>
				<port id="0" precision="BOOL">
					<dim>-1</dim>
				</port>
			</input>
			<output>
				<port id="1" precision="I64" names="b_/success_head/_operators.0/Cast_2_output_0">
					<dim>-1</dim>
				</port>
			</output>
		</layer>
		<layer id="111" name="b_/success_head/_operators.0/Add_2" type="Add" version="opset1">
			<data auto_broadcast="numpy" />
			<input>
				<port id="0" precision="I64">
					<dim>-1</dim>
				</port>
				<port id="1" precision="I64">
					<dim>-1</dim>
				</port>
			</input>
			<output>
				<port id="2" precision="I64" names="b_/success_head/_operators.0/Add_2_output_0">
					<dim>-1</dim>
				</port>
			</output>
		</layer>
		<layer id="112" name="Constant_3321" type="Const" version="opset1">
			<data element_type="i64" shape="1" offset="122066" size="8" />
			<output>
				<port id="0" precision="I64">
					<dim>1</dim>
				</port>
			</output>
		</layer>
		<layer id="113" name="b_/success_head/_operators.0/Mul_2" type="Multiply" version="opset1">
			<data auto_broadcast="numpy" />
			<input>
				<port id="0" precision="I64">
					<dim>-1</dim>
				</port>
				<port id="1" precision="I64">
					<dim>1</dim>
				</port>
			</input>
			<output>
				<port id="2" precision="I64" names="b_/success_head/_operators.0/Mul_2_output_0">
					<dim>-1</dim>
				</port>
			</output>
		</layer>
		<layer id="114" name="b_success_head._operators.0.nodes.2" type="Const" version="opset1">
			<data element_type="i64" shape="3600" offset="149090" size="28800" />
			<output>
				<port id="0" precision="I64" names="b_success_head._operators.0.nodes.2">
					<dim>3600</dim>
				</port>
			</output>
		</layer>
		<layer id="115" name="Constant_191" type="Const" version="opset1">
			<data element_type="i64" shape="" offset="55440" size="8" />
			<output>
				<port id="0" precision="I64" />
			</output>
		</layer>
		<layer id="116" name="b_/success_head/_operators.0/Gather_5" type="Gather" version="opset8">
			<data batch_dims="0" />
			<input>
				<port id="0" precision="I64">
					<dim>3600</dim>
				</port>
				<port id="1" precision="I64">
					<dim>-1</dim>
				</port>
				<port id="2" precision="I64" />
			</input>
			<output>
				<port id="3" precision="I64" names="b_/success_head/_operators.0/Gather_5_output_0">
					<dim>-1</dim>
				</port>
			</output>
		</layer>
		<layer id="117" name="b_/success_head/_operators.0/Constant_7" type="Const" version="opset1">
			<data element_type="i64" shape="2" offset="129274" size="16" />
			<rt_info>
				<attribute name="precise" version="0" />
			</rt_info>
			<output>
				<port id="0" precision="I64" names="b_/success_head/_operators.0/Constant_7_output_0">
					<dim>2</dim>
				</port>
			</output>
		</layer>
		<layer id="118" name="b_/success_head/_operators.0/Reshape_5" type="Reshape" version="opset1">
			<data special_zero="true" />
			<input>
				<port id="0" precision="I64">
					<dim>-1</dim>
				</port>
				<port id="1" precision="I64">
					<dim>2</dim>
				</port>
			</input>
			<output>
				<port id="2" precision="I64" names="b_/success_head/_operators.0/Reshape_5_output_0">
					<dim>-1</dim>
					<dim>450</dim>
				</port>
			</output>
		</layer>
		<layer id="119" name="b_/success_head/_operators.0/GatherElements_2" type="GatherElements" version="opset6">
			<data axis="1" />
			<input>
				<port id="0" precision="FP32">
					<dim>-1</dim>
					<dim>42</dim>
				</port>
				<port id="1" precision="I64">
					<dim>-1</dim>
					<dim>450</dim>
				</port>
			</input>
			<output>
				<port id="2" precision="FP32" names="b_/success_head/_operators.0/GatherElements_2_output_0">
					<dim>-1</dim>
					<dim>450</dim>
				</port>
			</output>
		</layer>
		<layer id="120" name="Constant_815" type="Const" version="opset1">
			<data element_type="i64" shape="1" offset="122058" size="8" />
			<rt_info>
				<attribute name="precise" version="0" />
			</rt_info>
			<output>
				<port id="0" precision="I64">
					<dim>1</dim>
				</port>
			</output>
		</layer>
		<layer id="121" name="b_/success_head/_operators.0/Reshape_6" type="Reshape" version="opset1">
			<data special_zero="true" />
			<input>
				<port id="0" precision="FP32">
					<dim>-1</dim>
					<dim>450</dim>
				</port>
				<port id="1" precision="I64">
					<dim>1</dim>
				</port>
			</input>
			<output>
				<port id="2" precision="FP32" names="b_/success_head/_operators.0/Reshape_6_output_0">
					<dim>-1</dim>
				</port>
			</output>
		</layer>
		<layer id="122" name="b_success_head._operators.0.biases.2_compressed" type="Const" version="opset1">
			<data element_type="f16" shape="3600" offset="177890" size="7200" />
			<output>
				<port id="0" precision="FP16" names="b_success_head._operators.0.biases.2">
					<dim>3600</dim>
				</port>
			</output>
		</layer>
		<layer id="123" name="b_success_head._operators.0.biases.2" type="Convert" version="opset1">
			<data destination_type="f32" />
			<rt_info>
				<attribute name="decompression" version="0" />
			</rt_info>
			<input>
				<port id="0" precision="FP16">
					<dim>3600</dim>
				</port>
			</input>
			<output>
				<port id="1" precision="FP32">
					<dim>3600</dim>
				</port>
			</output>
		</layer>
		<layer id="124" name="Constant_195" type="Const" version="opset1">
			<data element_type="i64" shape="" offset="55440" size="8" />
			<output>
				<port id="0" precision="I64" />
			</output>
		</layer>
		<layer id="125" name="b_/success_head/_operators.0/Gather_6" type="Gather" version="opset8">
			<data batch_dims="0" />
			<input>
				<port id="0" precision="FP32">
					<dim>3600</dim>
				</port>
				<port id="1" precision="I64">
					<dim>-1</dim>
				</port>
				<port id="2" precision="I64" />
			</input>
			<output>
				<port id="3" precision="FP32" names="b_/success_head/_operators.0/Gather_6_output_0">
					<dim>-1</dim>
				</port>
			</output>
		</layer>
		<layer id="126" name="b_/success_head/_operators.0/LessOrEqual_3" type="LessEqual" version="opset1">
			<data auto_broadcast="numpy" />
			<input>
				<port id="0" precision="FP32">
					<dim>-1</dim>
				</port>
				<port id="1" precision="FP32">
					<dim>-1</dim>
				</port>
			</input>
			<output>
				<port id="2" precision="BOOL" names="b_/success_head/_operators.0/LessOrEqual_3_output_0">
					<dim>-1</dim>
				</port>
			</output>
		</layer>
		<layer id="127" name="b_/success_head/_operators.0/Cast_3" type="Convert" version="opset1">
			<data destination_type="i64" />
			<input>
				<port id="0" precision="BOOL">
					<dim>-1</dim>
				</port>
			</input>
			<output>
				<port id="1" precision="I64" names="b_/success_head/_operators.0/Cast_3_output_0">
					<dim>-1</dim>
				</port>
			</output>
		</layer>
		<layer id="128" name="b_/success_head/_operators.0/Add_3" type="Add" version="opset1">
			<data auto_broadcast="numpy" />
			<input>
				<port id="0" precision="I64">
					<dim>-1</dim>
				</port>
				<port id="1" precision="I64">
					<dim>-1</dim>
				</port>
			</input>
			<output>
				<port id="2" precision="I64" names="b_/success_head/_operators.0/Add_3_output_0">
					<dim>-1</dim>
				</port>
			</output>
		</layer>
		<layer id="129" name="Constant_3322" type="Const" version="opset1">
			<data element_type="i64" shape="1" offset="122066" size="8" />
			<output>
				<port id="0" precision="I64">
					<dim>1</dim>
				</port>
			</output>
		</layer>
		<layer id="130" name="b_/success_head/_operators.0/Mul_3" type="Multiply" version="opset1">
			<data auto_broadcast="numpy" />
			<input>
				<port id="0" precision="I64">
					<dim>-1</dim>
				</port>
				<port id="1" precision="I64">
					<dim>1</dim>
				</port>
			</input>
			<output>
				<port id="2" precision="I64" names="b_/success_head/_operators.0/Mul_3_output_0">
					<dim>-1</dim>
				</port>
			</output>
		</layer>
		<layer id="131" name="b_success_head._operators.0.nodes.3" type="Const" version="opset1">
			<data element_type="i64" shape="7200" offset="185090" size="57600" />
			<output>
				<port id="0" precision="I64" names="b_success_head._operators.0.nodes.3">
					<dim>7200</dim>
				</port>
			</output>
		</layer>
		<layer id="132" name="Constant_217" type="Const" version="opset1">
			<data element_type="i64" shape="" offset="55440" size="8" />
			<output>
				<port id="0" precision="I64" />
			</output>
		</layer>
		<layer id="133" name="b_/success_head/_operators.0/Gather_7" type="Gather" version="opset8">
			<data batch_dims="0" />
			<input>
				<port id="0" precision="I64">
					<dim>7200</dim>
				</port>
				<port id="1" precision="I64">
					<dim>-1</dim>
				</port>
				<port id="2" precision="I64" />
			</input>
			<output>
				<port id="3" precision="I64" names="b_/success_head/_operators.0/Gather_7_output_0">
					<dim>-1</dim>
				</port>
			</output>
		</layer>
		<layer id="134" name="b_/success_head/_operators.0/Constant_10" type="Const" version="opset1">
			<data element_type="i64" shape="2" offset="129274" size="16" />
			<rt_info>
				<attribute name="precise" version="0" />
			</rt_info>
			<output>
				<port id="0" precision="I64" names="b_/success_head/_operators.0/Constant_10_output_0">
					<dim>2</dim>
				</port>
			</output>
		</layer>
		<layer id="135" name="b_/success_head/_operators.0/Reshape_7" type="Reshape" version="opset1">
			<data special_zero="true" />
			<input>
				<port id="0" precision="I64">
					<dim>-1</dim>
				</port>
				<port id="1" precision="I64">
					<dim>2</dim>
				</port>
			</input>
			<output>
				<port id="2" precision="I64" names="b_/success_head/_operators.0/Reshape_7_output_0">
					<dim>-1</dim>
					<dim>450</dim>
				</port>
			</output>
		</layer>
		<layer id="136" name="b_/success_head/_operators.0/GatherElements_3" type="GatherElements" version="opset6">
			<data axis="1" />
			<input>
				<port id="0" precision="FP32">
					<dim>-1</dim>
					<dim>42</dim>
				</port>
				<port id="1" precision="I64">
					<dim>-1</dim>
					<dim>450</dim>
				</port>
			</input>
			<output>
				<port id="2" precision="FP32" names="b_/success_head/_operators.0/GatherElements_3_output_0">
					<dim>-1</dim>
					<dim>450</dim>
				</port>
			</output>
		</layer>
		<layer id="137" name="Constant_816" type="Const" version="opset1">
			<data element_type="i64" shape="1" offset="122058" size="8" />
			<rt_info>
				<attribute name="precise" version="0" />
			</rt_info>
			<output>
				<port id="0" precision="I64">
					<dim>1</dim>
				</port>
			</output>
		</layer>
		<layer id="138" name="b_/success_head/_operators.0/Reshape_8" type="Reshape" version="opset1">
			<data special_zero="true" />
			<input>
				<port id="0" precision="FP32">
					<dim>-1</dim>
					<dim>450</dim>
				</port>
				<port id="1" precision="I64">
					<dim>1</dim>
				</port>
			</input>
			<output>
				<port id="2" precision="FP32" names="b_/success_head/_operators.0/Reshape_8_output_0">
					<dim>-1</dim>
				</port>
			</output>
		</layer>
		<layer id="139" name="b_success_head._operators.0.biases.3_compressed" type="Const" version="opset1">
			<data element_type="f16" shape="7200" offset="242690" size="14400" />
			<output>
				<port id="0" precision="FP16" names="b_success_head._operators.0.biases.3">
					<dim>7200</dim>
				</port>
			</output>
		</layer>
		<layer id="140" name="b_success_head._operators.0.biases.3" type="Convert" version="opset1">
			<data destination_type="f32" />
			<rt_info>
				<attribute name="decompression" version="0" />
			</rt_info>
			<input>
				<port id="0" precision="FP16">
					<dim>7200</dim>
				</port>
			</input>
			<output>
				<port id="1" precision="FP32">
					<dim>7200</dim>
				</port>
			</output>
		</layer>
		<layer id="141" name="Constant_221" type="Const" version="opset1">
			<data element_type="i64" shape="" offset="55440" size="8" />
			<output>
				<port id="0" precision="I64" />
			</output>
		</layer>
		<layer id="142" name="b_/success_head/_operators.0/Gather_8" type="Gather" version="opset8">
			<data batch_dims="0" />
			<input>
				<port id="0" precision="FP32">
					<dim>7200</dim>
				</port>
				<port id="1" precision="I64">
					<dim>-1</dim>
				</port>
				<port id="2" precision="I64" />
			</input>
			<output>
				<port id="3" precision="FP32" names="b_/success_head/_operators.0/Gather_8_output_0">
					<dim>-1</dim>
				</port>
			</output>
		</layer>
		<layer id="143" name="b_/success_head/_operators.0/LessOrEqual_4" type="LessEqual" version="opset1">
			<data auto_broadcast="numpy" />
			<input>
				<port id="0" precision="FP32">
					<dim>-1</dim>
				</port>
				<port id="1" precision="FP32">
					<dim>-1</dim>
				</port>
			</input>
			<output>
				<port id="2" precision="BOOL" names="b_/success_head/_operators.0/LessOrEqual_4_output_0">
					<dim>-1</dim>
				</port>
			</output>
		</layer>
		<layer id="144" name="b_/success_head/_operators.0/Cast_4" type="Convert" version="opset1">
			<data destination_type="i64" />
			<input>
				<port id="0" precision="BOOL">
					<dim>-1</dim>
				</port>
			</input>
			<output>
				<port id="1" precision="I64" names="b_/success_head/_operators.0/Cast_4_output_0">
					<dim>-1</dim>
				</port>
			</output>
		</layer>
		<layer id="145" name="b_/success_head/_operators.0/Add_4" type="Add" version="opset1">
			<data auto_broadcast="numpy" />
			<input>
				<port id="0" precision="I64">
					<dim>-1</dim>
				</port>
				<port id="1" precision="I64">
					<dim>-1</dim>
				</port>
			</input>
			<output>
				<port id="2" precision="I64" names="b_/success_head/_operators.0/Add_4_output_0">
					<dim>-1</dim>
				</port>
			</output>
		</layer>
		<layer id="146" name="Constant_3323" type="Const" version="opset1">
			<data element_type="i64" shape="1" offset="122066" size="8" />
			<output>
				<port id="0" precision="I64">
					<dim>1</dim>
				</port>
			</output>
		</layer>
		<layer id="147" name="b_/success_head/_operators.0/Mul_4" type="Multiply" version="opset1">
			<data auto_broadcast="numpy" />
			<input>
				<port id="0" precision="I64">
					<dim>-1</dim>
				</port>
				<port id="1" precision="I64">
					<dim>1</dim>
				</port>
			</input>
			<output>
				<port id="2" precision="I64" names="b_/success_head/_operators.0/Mul_4_output_0">
					<dim>-1</dim>
				</port>
			</output>
		</layer>
		<layer id="148" name="b_success_head._operators.0.nodes.4" type="Const" version="opset1">
			<data element_type="i64" shape="14400" offset="257090" size="115200" />
			<output>
				<port id="0" precision="I64" names="b_success_head._operators.0.nodes.4">
					<dim>14400</dim>
				</port>
			</output>
		</layer>
		<layer id="149" name="Constant_243" type="Const" version="opset1">
			<data element_type="i64" shape="" offset="55440" size="8" />
			<output>
				<port id="0" precision="I64" />
			</output>
		</layer>
		<layer id="150" name="b_/success_head/_operators.0/Gather_9" type="Gather" version="opset8">
			<data batch_dims="0" />
			<input>
				<port id="0" precision="I64">
					<dim>14400</dim>
				</port>
				<port id="1" precision="I64">
					<dim>-1</dim>
				</port>
				<port id="2" precision="I64" />
			</input>
			<output>
				<port id="3" precision="I64" names="b_/success_head/_operators.0/Gather_9_output_0">
					<dim>-1</dim>
				</port>
			</output>
		</layer>
		<layer id="151" name="b_/success_head/_operators.0/Constant_13" type="Const" version="opset1">
			<data element_type="i64" shape="2" offset="129274" size="16" />
			<rt_info>
				<attribute name="precise" version="0" />
			</rt_info>
			<output>
				<port id="0" precision="I64" names="b_/success_head/_operators.0/Constant_13_output_0">
					<dim>2</dim>
				</port>
			</output>
		</layer>
		<layer id="152" name="b_/success_head/_operators.0/Reshape_9" type="Reshape" version="opset1">
			<data special_zero="true" />
			<input>
				<port id="0" precision="I64">
					<dim>-1</dim>
				</port>
				<port id="1" precision="I64">
					<dim>2</dim>
				</port>
			</input>
			<output>
				<port id="2" precision="I64" names="b_/success_head/_operators.0/Reshape_9_output_0">
					<dim>-1</dim>
					<dim>450</dim>
				</port>
			</output>
		</layer>
		<layer id="153" name="b_/success_head/_operators.0/GatherElements_4" type="GatherElements" version="opset6">
			<data axis="1" />
			<input>
				<port id="0" precision="FP32">
					<dim>-1</dim>
					<dim>42</dim>
				</port>
				<port id="1" precision="I64">
					<dim>-1</dim>
					<dim>450</dim>
				</port>
			</input>
			<output>
				<port id="2" precision="FP32" names="b_/success_head/_operators.0/GatherElements_4_output_0">
					<dim>-1</dim>
					<dim>450</dim>
				</port>
			</output>
		</layer>
		<layer id="154" name="Constant_817" type="Const" version="opset1">
			<data element_type="i64" shape="1" offset="122058" size="8" />
			<rt_info>
				<attribute name="precise" version="0" />
			</rt_info>
			<output>
				<port id="0" precision="I64">
					<dim>1</dim>
				</port>
			</output>
		</layer>
		<layer id="155" name="b_/success_head/_operators.0/Reshape_10" type="Reshape" version="opset1">
			<data special_zero="true" />
			<input>
				<port id="0" precision="FP32">
					<dim>-1</dim>
					<dim>450</dim>
				</port>
				<port id="1" precision="I64">
					<dim>1</dim>
				</port>
			</input>
			<output>
				<port id="2" precision="FP32" names="b_/success_head/_operators.0/Reshape_10_output_0">
					<dim>-1</dim>
				</port>
			</output>
		</layer>
		<layer id="156" name="b_success_head._operators.0.biases.4_compressed" type="Const" version="opset1">
			<data element_type="f16" shape="14400" offset="372290" size="28800" />
			<output>
				<port id="0" precision="FP16" names="b_success_head._operators.0.biases.4">
					<dim>14400</dim>
				</port>
			</output>
		</layer>
		<layer id="157" name="b_success_head._operators.0.biases.4" type="Convert" version="opset1">
			<data destination_type="f32" />
			<rt_info>
				<attribute name="decompression" version="0" />
			</rt_info>
			<input>
				<port id="0" precision="FP16">
					<dim>14400</dim>
				</port>
			</input>
			<output>
				<port id="1" precision="FP32">
					<dim>14400</dim>
				</port>
			</output>
		</layer>
		<layer id="158" name="Constant_247" type="Const" version="opset1">
			<data element_type="i64" shape="" offset="55440" size="8" />
			<output>
				<port id="0" precision="I64" />
			</output>
		</layer>
		<layer id="159" name="b_/success_head/_operators.0/Gather_10" type="Gather" version="opset8">
			<data batch_dims="0" />
			<input>
				<port id="0" precision="FP32">
					<dim>14400</dim>
				</port>
				<port id="1" precision="I64">
					<dim>-1</dim>
				</port>
				<port id="2" precision="I64" />
			</input>
			<output>
				<port id="3" precision="FP32" names="b_/success_head/_operators.0/Gather_10_output_0">
					<dim>-1</dim>
				</port>
			</output>
		</layer>
		<layer id="160" name="b_/success_head/_operators.0/LessOrEqual_5" type="LessEqual" version="opset1">
			<data auto_broadcast="numpy" />
			<input>
				<port id="0" precision="FP32">
					<dim>-1</dim>
				</port>
				<port id="1" precision="FP32">
					<dim>-1</dim>
				</port>
			</input>
			<output>
				<port id="2" precision="BOOL" names="b_/success_head/_operators.0/LessOrEqual_5_output_0">
					<dim>-1</dim>
				</port>
			</output>
		</layer>
		<layer id="161" name="b_/success_head/_operators.0/Cast_5" type="Convert" version="opset1">
			<data destination_type="i64" />
			<input>
				<port id="0" precision="BOOL">
					<dim>-1</dim>
				</port>
			</input>
			<output>
				<port id="1" precision="I64" names="b_/success_head/_operators.0/Cast_5_output_0">
					<dim>-1</dim>
				</port>
			</output>
		</layer>
		<layer id="162" name="b_/success_head/_operators.0/Add_5" type="Add" version="opset1">
			<data auto_broadcast="numpy" />
			<input>
				<port id="0" precision="I64">
					<dim>-1</dim>
				</port>
				<port id="1" precision="I64">
					<dim>-1</dim>
				</port>
			</input>
			<output>
				<port id="2" precision="I64" names="b_/success_head/_operators.0/Add_5_output_0">
					<dim>-1</dim>
				</port>
			</output>
		</layer>
		<layer id="163" name="Constant_269" type="Const" version="opset1">
			<data element_type="i64" shape="" offset="55440" size="8" />
			<output>
				<port id="0" precision="I64" />
			</output>
		</layer>
		<layer id="164" name="b_/success_head/_operators.0/Gather_11" type="Gather" version="opset8">
			<data batch_dims="0" />
			<input>
				<port id="0" precision="FP32">
					<dim>28800</dim>
					<dim>1</dim>
				</port>
				<port id="1" precision="I64">
					<dim>-1</dim>
				</port>
				<port id="2" precision="I64" />
			</input>
			<output>
				<port id="3" precision="FP32" names="b_/success_head/_operators.0/Gather_11_output_0">
					<dim>-1</dim>
					<dim>1</dim>
				</port>
			</output>
		</layer>
		<layer id="165" name="Constant_3358" type="Const" version="opset1">
			<data element_type="i64" shape="3" offset="401090" size="24" />
			<rt_info>
				<attribute name="precise" version="0" />
			</rt_info>
			<output>
				<port id="0" precision="I64">
					<dim>3</dim>
				</port>
			</output>
		</layer>
		<layer id="166" name="b_/success_head/_operators.0/Reshape_12" type="Reshape" version="opset1">
			<data special_zero="false" />
			<input>
				<port id="0" precision="FP32">
					<dim>-1</dim>
					<dim>1</dim>
				</port>
				<port id="1" precision="I64">
					<dim>3</dim>
				</port>
			</input>
			<output>
				<port id="2" precision="FP32" names="b_/success_head/_operators.0/Reshape_12_output_0">
					<dim>-1</dim>
					<dim>1</dim>
					<dim>450</dim>
				</port>
			</output>
		</layer>
		<layer id="167" name="b_Constant_109" type="Const" version="opset1">
			<data element_type="i64" shape="1" offset="122066" size="8" />
			<output>
				<port id="0" precision="I64" names="b_onnx::ReduceSum_100">
					<dim>1</dim>
				</port>
			</output>
		</layer>
		<layer id="168" name="b_/success_head/_operators.0/ReduceSum" type="ReduceSum" version="opset1">
			<data keep_dims="false" />
			<input>
				<port id="0" precision="FP32">
					<dim>-1</dim>
					<dim>1</dim>
					<dim>450</dim>
				</port>
				<port id="1" precision="I64">
					<dim>1</dim>
				</port>
			</input>
			<output>
				<port id="2" precision="FP32" names="b_/success_head/_operators.0/ReduceSum_output_0">
					<dim>-1</dim>
					<dim>1</dim>
				</port>
			</output>
		</layer>
		<layer id="169" name="b_time_head._operators.0.leaf_nodes_compressed" type="Const" version="opset1">
			<data element_type="f16" shape="28800, 1" offset="401114" size="57600" />
			<output>
				<port id="0" precision="FP16" names="b_time_head._operators.0.leaf_nodes">
					<dim>28800</dim>
					<dim>1</dim>
				</port>
			</output>
		</layer>
		<layer id="170" name="b_time_head._operators.0.leaf_nodes" type="Convert" version="opset1">
			<data destination_type="f32" />
			<rt_info>
				<attribute name="decompression" version="0" />
			</rt_info>
			<input>
				<port id="0" precision="FP16">
					<dim>28800</dim>
					<dim>1</dim>
				</port>
			</input>
			<output>
				<port id="1" precision="FP32">
					<dim>28800</dim>
					<dim>1</dim>
				</port>
			</output>
		</layer>
		<layer id="171" name="b_time_head._operators.0.root_nodes" type="Const" version="opset1">
			<data element_type="i64" shape="450" offset="458714" size="3600" />
			<output>
				<port id="0" precision="I64" names="b_time_head._operators.0.root_nodes">
					<dim>450</dim>
				</port>
			</output>
		</layer>
		<layer id="172" name="Constant_51" type="Const" version="opset1">
			<data element_type="i64" shape="" offset="55448" size="8" />
			<output>
				<port id="0" precision="I64" />
			</output>
		</layer>
		<layer id="173" name="b_/time_head/_operators.0/Gather" type="Gather" version="opset8">
			<data batch_dims="0" />
			<input>
				<port id="0" precision="FP32">
					<dim>-1</dim>
					<dim>42</dim>
				</port>
				<port id="1" precision="I64">
					<dim>450</dim>
				</port>
				<port id="2" precision="I64" />
			</input>
			<output>
				<port id="3" precision="FP32" names="b_/time_head/_operators.0/Gather_output_0">
					<dim>-1</dim>
					<dim>450</dim>
				</port>
			</output>
		</layer>
		<layer id="174" name="Constant_3324_compressed" type="Const" version="opset1">
			<data element_type="f16" shape="1, 450" offset="462314" size="900" />
			<output>
				<port id="0" precision="FP16">
					<dim>1</dim>
					<dim>450</dim>
				</port>
			</output>
		</layer>
		<layer id="175" name="Constant_3324" type="Convert" version="opset1">
			<data destination_type="f32" />
			<rt_info>
				<attribute name="decompression" version="0" />
			</rt_info>
			<input>
				<port id="0" precision="FP16">
					<dim>1</dim>
					<dim>450</dim>
				</port>
			</input>
			<output>
				<port id="1" precision="FP32">
					<dim>1</dim>
					<dim>450</dim>
				</port>
			</output>
		</layer>
		<layer id="176" name="b_/time_head/_operators.0/LessOrEqual" type="LessEqual" version="opset1">
			<data auto_broadcast="numpy" />
			<input>
				<port id="0" precision="FP32">
					<dim>-1</dim>
					<dim>450</dim>
				</port>
				<port id="1" precision="FP32">
					<dim>1</dim>
					<dim>450</dim>
				</port>
			</input>
			<output>
				<port id="2" precision="BOOL" names="b_/time_head/_operators.0/LessOrEqual_output_0">
					<dim>-1</dim>
					<dim>450</dim>
				</port>
			</output>
		</layer>
		<layer id="177" name="b_/time_head/_operators.0/Cast" type="Convert" version="opset1">
			<data destination_type="i64" />
			<input>
				<port id="0" precision="BOOL">
					<dim>-1</dim>
					<dim>450</dim>
				</port>
			</input>
			<output>
				<port id="1" precision="I64" names="b_/time_head/_operators.0/Cast_output_0">
					<dim>-1</dim>
					<dim>450</dim>
				</port>
			</output>
		</layer>
		<layer id="178" name="Constant_3325" type="Const" version="opset1">
			<data element_type="i64" shape="1, 450" offset="118458" size="3600" />
			<output>
				<port id="0" precision="I64">
					<dim>1</dim>
					<dim>450</dim>
				</port>
			</output>
		</layer>
		<layer id="179" name="b_/time_head/_operators.0/Add" type="Add" version="opset1">
			<data auto_broadcast="numpy" />
			<input>
				<port id="0" precision="I64">
					<dim>-1</dim>
					<dim>450</dim>
				</port>
				<port id="1" precision="I64">
					<dim>1</dim>
					<dim>450</dim>
				</port>
			</input>
			<output>
				<port id="2" precision="I64" names="b_/time_head/_operators.0/Add_output_0">
					<dim>-1</dim>
					<dim>450</dim>
				</port>
			</output>
		</layer>
		<layer id="180" name="Constant_818" type="Const" version="opset1">
			<data element_type="i64" shape="1" offset="122058" size="8" />
			<rt_info>
				<attribute name="precise" version="0" />
			</rt_info>
			<output>
				<port id="0" precision="I64">
					<dim>1</dim>
				</port>
			</output>
		</layer>
		<layer id="181" name="b_/time_head/_operators.0/Reshape" type="Reshape" version="opset1">
			<data special_zero="true" />
			<input>
				<port id="0" precision="I64">
					<dim>-1</dim>
					<dim>450</dim>
				</port>
				<port id="1" precision="I64">
					<dim>1</dim>
				</port>
			</input>
			<output>
				<port id="2" precision="I64" names="b_/time_head/_operators.0/Reshape_output_0">
					<dim>-1</dim>
				</port>
			</output>
		</layer>
		<layer id="182" name="Constant_3326" type="Const" version="opset1">
			<data element_type="i64" shape="1" offset="122066" size="8" />
			<output>
				<port id="0" precision="I64">
					<dim>1</dim>
				</port>
			</output>
		</layer>
		<layer id="183" name="b_/time_head/_operators.0/Mul" type="Multiply" version="opset1">
			<data auto_broadcast="numpy" />
			<input>
				<port id="0" precision="I64">
					<dim>-1</dim>
				</port>
				<port id="1" precision="I64">
					<dim>1</dim>
				</port>
			</input>
			<output>
				<port id="2" precision="I64" names="b_/time_head/_operators.0/Mul_output_0">
					<dim>-1</dim>
				</port>
			</output>
		</layer>
		<layer id="184" name="b_time_head._operators.0.nodes.0" type="Const" version="opset1">
			<data element_type="i64" shape="900" offset="463214" size="7200" />
			<output>
				<port id="0" precision="I64" names="b_time_head._operators.0.nodes.0">
					<dim>900</dim>
				</port>
			</output>
		</layer>
		<layer id="185" name="Constant_126" type="Const" version="opset1">
			<data element_type="i64" shape="" offset="55440" size="8" />
			<output>
				<port id="0" precision="I64" />
			</output>
		</layer>
		<layer id="186" name="b_/time_head/_operators.0/Gather_1" type="Gather" version="opset8">
			<data batch_dims="0" />
			<input>
				<port id="0" precision="I64">
					<dim>900</dim>
				</port>
				<port id="1" precision="I64">
					<dim>-1</dim>
				</port>
				<port id="2" precision="I64" />
			</input>
			<output>
				<port id="3" precision="I64" names="b_/time_head/_operators.0/Gather_1_output_0">
					<dim>-1</dim>
				</port>
			</output>
		</layer>
		<layer id="187" name="b_/time_head/_operators.0/Constant_1" type="Const" version="opset1">
			<data element_type="i64" shape="2" offset="129274" size="16" />
			<rt_info>
				<attribute name="precise" version="0" />
			</rt_info>
			<output>
				<port id="0" precision="I64" names="b_/time_head/_operators.0/Constant_1_output_0">
					<dim>2</dim>
				</port>
			</output>
		</layer>
		<layer id="188" name="b_/time_head/_operators.0/Reshape_1" type="Reshape" version="opset1">
			<data special_zero="true" />
			<input>
				<port id="0" precision="I64">
					<dim>-1</dim>
				</port>
				<port id="1" precision="I64">
					<dim>2</dim>
				</port>
			</input>
			<output>
				<port id="2" precision="I64" names="b_/time_head/_operators.0/Reshape_1_output_0">
					<dim>-1</dim>
					<dim>450</dim>
				</port>
			</output>
		</layer>
		<layer id="189" name="b_/time_head/_operators.0/GatherElements" type="GatherElements" version="opset6">
			<data axis="1" />
			<input>
				<port id="0" precision="FP32">
					<dim>-1</dim>
					<dim>42</dim>
				</port>
				<port id="1" precision="I64">
					<dim>-1</dim>
					<dim>450</dim>
				</port>
			</input>
			<output>
				<port id="2" precision="FP32" names="b_/time_head/_operators.0/GatherElements_output_0">
					<dim>-1</dim>
					<dim>450</dim>
				</port>
			</output>
		</layer>
		<layer id="190" name="Constant_819" type="Const" version="opset1">
			<data element_type="i64" shape="1" offset="122058" size="8" />
			<rt_info>
				<attribute name="precise" version="0" />
			</rt_info>
			<output>
				<port id="0" precision="I64">
					<dim>1</dim>
				</port>
			</output>
		</layer>
		<layer id="191" name="b_/time_head/_operators.0/Reshape_2" type="Reshape" version="opset1">
			<data special_zero="true" />
			<input>
				<port id="0" precision="FP32">
					<dim>-1</dim>
					<dim>450</dim>
				</port>
				<port id="1" precision="I64">
					<dim>1</dim>
				</port>
			</input>
			<output>
				<port id="2" precision="FP32" names="b_/time_head/_operators.0/Reshape_2_output_0">
					<dim>-1</dim>
				</port>
			</output>
		</layer>
		<layer id="192" name="b_time_head._operators.0.biases.0_compressed" type="Const" version="opset1">
			<data element_type="f16" shape="900" offset="470414" size="1800" />
			<output>
				<port id="0" precision="FP16" names="b_time_head._operators.0.biases.0">
					<dim>900</dim>
				</port>
			</output>
		</layer>
		<layer id="193" name="b_time_head._operators.0.biases.0" type="Convert" version="opset1">
			<data destination_type="f32" />
			<rt_info>
				<attribute name="decompression" version="0" />
			</rt_info>
			<input>
				<port id="0" precision="FP16">
					<dim>900</dim>
				</port>
			</input>
			<output>
				<port id="1" precision="FP32">
					<dim>900</dim>
				</port>
			</output>
		</layer>
		<layer id="194" name="Constant_130" type="Const" version="opset1">
			<data element_type="i64" shape="" offset="55440" size="8" />
			<output>
				<port id="0" precision="I64" />
			</output>
		</layer>
		<layer id="195" name="b_/time_head/_operators.0/Gather_2" type="Gather" version="opset8">
			<data batch_dims="0" />
			<input>
				<port id="0" precision="FP32">
					<dim>900</dim>
				</port>
				<port id="1" precision="I64">
					<dim>-1</dim>
				</port>
				<port id="2" precision="I64" />
			</input>
			<output>
				<port id="3" precision="FP32" names="b_/time_head/_operators.0/Gather_2_output_0">
					<dim>-1</dim>
				</port>
			</output>
		</layer>
		<layer id="196" name="b_/time_head/_operators.0/LessOrEqual_1" type="LessEqual" version="opset1">
			<data auto_broadcast="numpy" />
			<input>
				<port id="0" precision="FP32">
					<dim>-1</dim>
				</port>
				<port id="1" precision="FP32">
					<dim>-1</dim>
				</port>
			</input>
			<output>
				<port id="2" precision="BOOL" names="b_/time_head/_operators.0/LessOrEqual_1_output_0">
					<dim>-1</dim>
				</port>
			</output>
		</layer>
		<layer id="197" name="b_/time_head/_operators.0/Cast_1" type="Convert" version="opset1">
			<data destination_type="i64" />
			<input>
				<port id="0" precision="BOOL">
					<dim>-1</dim>
				</port>
			</input>
			<output>
				<port id="1" precision="I64" names="b_/time_head/_operators.0/Cast_1_output_0">
					<dim>-1</dim>
				</port>
			</output>
		</layer>
		<layer id="198" name="b_/time_head/_operators.0/Add_1" type="Add" version="opset1">
			<data auto_broadcast="numpy" />
			<input>
				<port id="0" precision="I64">
					<dim>-1</dim>
				</port>
				<port id="1" precision="I64">
					<dim>-1</dim>
				</port>
			</input>
			<output>
				<port id="2" precision="I64" names="b_/time_head/_operators.0/Add_1_output_0">
					<dim>-1</dim>
				</port>
			</output>
		</layer>
		<layer id="199" name="Constant_3327" type="Const" version="opset1">
			<data element_type="i64" shape="1" offset="122066" size="8" />
			<output>
				<port id="0" precision="I64">
					<dim>1</dim>
				</port>
			</output>
		</layer>
		<layer id="200" name="b_/time_head/_operators.0/Mul_1" type="Multiply" version="opset1">
			<data auto_broadcast="numpy" />
			<input>
				<port id="0" precision="I64">
					<dim>-1</dim>
				</port>
				<port id="1" precision="I64">
					<dim>1</dim>
				</port>
			</input>
			<output>
				<port id="2" precision="I64" names="b_/time_head/_operators.0/Mul_1_output_0">
					<dim>-1</dim>
				</port>
			</output>
		</layer>
		<layer id="201" name="b_time_head._operators.0.nodes.1" type="Const" version="opset1">
			<data element_type="i64" shape="1800" offset="472214" size="14400" />
			<output>
				<port id="0" precision="I64" names="b_time_head._operators.0.nodes.1">
					<dim>1800</dim>
				</port>
			</output>
		</layer>
		<layer id="202" name="Constant_171" type="Const" version="opset1">
			<data element_type="i64" shape="" offset="55440" size="8" />
			<output>
				<port id="0" precision="I64" />
			</output>
		</layer>
		<layer id="203" name="b_/time_head/_operators.0/Gather_3" type="Gather" version="opset8">
			<data batch_dims="0" />
			<input>
				<port id="0" precision="I64">
					<dim>1800</dim>
				</port>
				<port id="1" precision="I64">
					<dim>-1</dim>
				</port>
				<port id="2" precision="I64" />
			</input>
			<output>
				<port id="3" precision="I64" names="b_/time_head/_operators.0/Gather_3_output_0">
					<dim>-1</dim>
				</port>
			</output>
		</layer>
		<layer id="204" name="b_/time_head/_operators.0/Constant_4" type="Const" version="opset1">
			<data element_type="i64" shape="2" offset="129274" size="16" />
			<rt_info>
				<attribute name="precise" version="0" />
			</rt_info>
			<output>
				<port id="0" precision="I64" names="b_/time_head/_operators.0/Constant_4_output_0">
					<dim>2</dim>
				</port>
			</output>
		</layer>
		<layer id="205" name="b_/time_head/_operators.0/Reshape_3" type="Reshape" version="opset1">
			<data special_zero="true" />
			<input>
				<port id="0" precision="I64">
					<dim>-1</dim>
				</port>
				<port id="1" precision="I64">
					<dim>2</dim>
				</port>
			</input>
			<output>
				<port id="2" precision="I64" names="b_/time_head/_operators.0/Reshape_3_output_0">
					<dim>-1</dim>
					<dim>450</dim>
				</port>
			</output>
		</layer>
		<layer id="206" name="b_/time_head/_operators.0/GatherElements_1" type="GatherElements" version="opset6">
			<data axis="1" />
			<input>
				<port id="0" precision="FP32">
					<dim>-1</dim>
					<dim>42</dim>
				</port>
				<port id="1" precision="I64">
					<dim>-1</dim>
					<dim>450</dim>
				</port>
			</input>
			<output>
				<port id="2" precision="FP32" names="b_/time_head/_operators.0/GatherElements_1_output_0">
					<dim>-1</dim>
					<dim>450</dim>
				</port>
			</output>
		</layer>
		<layer id="207" name="Constant_820" type="Const" version="opset1">
			<data element_type="i64" shape="1" offset="122058" size="8" />
			<rt_info>
				<attribute name="precise" version="0" />
			</rt_info>
			<output>
				<port id="0" precision="I64">
					<dim>1</dim>
				</port>
			</output>
		</layer>
		<layer id="208" name="b_/time_head/_operators.0/Reshape_4" type="Reshape" version="opset1">
			<data special_zero="true" />
			<input>
				<port id="0" precision="FP32">
					<dim>-1</dim>
					<dim>450</dim>
				</port>
				<port id="1" precision="I64">
					<dim>1</dim>
				</port>
			</input>
			<output>
				<port id="2" precision="FP32" names="b_/time_head/_operators.0/Reshape_4_output_0">
					<dim>-1</dim>
				</port>
			</output>
		</layer>
		<layer id="209" name="b_time_head._operators.0.biases.1_compressed" type="Const" version="opset1">
			<data element_type="f16" shape="1800" offset="486614" size="3600" />
			<output>
				<port id="0" precision="FP16" names="b_time_head._operators.0.biases.1">
					<dim>1800</dim>
				</port>
			</output>
		</layer>
		<layer id="210" name="b_time_head._operators.0.biases.1" type="Convert" version="opset1">
			<data destination_type="f32" />
			<rt_info>
				<attribute name="decompression" version="0" />
			</rt_info>
			<input>
				<port id="0" precision="FP16">
					<dim>1800</dim>
				</port>
			</input>
			<output>
				<port id="1" precision="FP32">
					<dim>1800</dim>
				</port>
			</output>
		</layer>
		<layer id="211" name="Constant_175" type="Const" version="opset1">
			<data element_type="i64" shape="" offset="55440" size="8" />
			<output>
				<port id="0" precision="I64" />
			</output>
		</layer>
		<layer id="212" name="b_/time_head/_operators.0/Gather_4" type="Gather" version="opset8">
			<data batch_dims="0" />
			<input>
				<port id="0" precision="FP32">
					<dim>1800</dim>
				</port>
				<port id="1" precision="I64">
					<dim>-1</dim>
				</port>
				<port id="2" precision="I64" />
			</input>
			<output>
				<port id="3" precision="FP32" names="b_/time_head/_operators.0/Gather_4_output_0">
					<dim>-1</dim>
				</port>
			</output>
		</layer>
		<layer id="213" name="b_/time_head/_operators.0/LessOrEqual_2" type="LessEqual" version="opset1">
			<data auto_broadcast="numpy" />
			<input>
				<port id="0" precision="FP32">
					<dim>-1</dim>
				</port>
				<port id="1" precision="FP32">
					<dim>-1</dim>
				</port>
			</input>
			<output>
				<port id="2" precision="BOOL" names="b_/time_head/_operators.0/LessOrEqual_2_output_0">
					<dim>-1</dim>
				</port>
			</output>
		</layer>
		<layer id="214" name="b_/time_head/_operators.0/Cast_2" type="Convert" version="opset1">
			<data destination_type="i64" />
			<input>
				<port id="0" precision="BOOL">
					<dim>-1</dim>
				</port>
			</input>
			<output>
				<port id="1" precision="I64" names="b_/time_head/_operators.0/Cast_2_output_0">
					<dim>-1</dim>
				</port>
			</output>
		</layer>
		<layer id="215" name="b_/time_head/_operators.0/Add_2" type="Add" version="opset1">
			<data auto_broadcast="numpy" />
			<input>
				<port id="0" precision="I64">
					<dim>-1</dim>
				</port>
				<port id="1" precision="I64">
					<dim>-1</dim>
				</port>
			</input>
			<output>
				<port id="2" precision="I64" names="b_/time_head/_operators.0/Add_2_output_0">
					<dim>-1</dim>
				</port>
			</output>
		</layer>
		<layer id="216" name="Constant_3328" type="Const" version="opset1">
			<data element_type="i64" shape="1" offset="122066" size="8" />
			<output>
				<port id="0" precision="I64">
					<dim>1</dim>
				</port>
			</output>
		</layer>
		<layer id="217" name="b_/time_head/_operators.0/Mul_2" type="Multiply" version="opset1">
			<data auto_broadcast="numpy" />
			<input>
				<port id="0" precision="I64">
					<dim>-1</dim>
				</port>
				<port id="1" precision="I64">
					<dim>1</dim>
				</port>
			</input>
			<output>
				<port id="2" precision="I64" names="b_/time_head/_operators.0/Mul_2_output_0">
					<dim>-1</dim>
				</port>
			</output>
		</layer>
		<layer id="218" name="b_time_head._operators.0.nodes.2" type="Const" version="opset1">
			<data element_type="i64" shape="3600" offset="490214" size="28800" />
			<output>
				<port id="0" precision="I64" names="b_time_head._operators.0.nodes.2">
					<dim>3600</dim>
				</port>
			</output>
		</layer>
		<layer id="219" name="Constant_198" type="Const" version="opset1">
			<data element_type="i64" shape="" offset="55440" size="8" />
			<output>
				<port id="0" precision="I64" />
			</output>
		</layer>
		<layer id="220" name="b_/time_head/_operators.0/Gather_5" type="Gather" version="opset8">
			<data batch_dims="0" />
			<input>
				<port id="0" precision="I64">
					<dim>3600</dim>
				</port>
				<port id="1" precision="I64">
					<dim>-1</dim>
				</port>
				<port id="2" precision="I64" />
			</input>
			<output>
				<port id="3" precision="I64" names="b_/time_head/_operators.0/Gather_5_output_0">
					<dim>-1</dim>
				</port>
			</output>
		</layer>
		<layer id="221" name="b_/time_head/_operators.0/Constant_7" type="Const" version="opset1">
			<data element_type="i64" shape="2" offset="129274" size="16" />
			<rt_info>
				<attribute name="precise" version="0" />
			</rt_info>
			<output>
				<port id="0" precision="I64" names="b_/time_head/_operators.0/Constant_7_output_0">
					<dim>2</dim>
				</port>
			</output>
		</layer>
		<layer id="222" name="b_/time_head/_operators.0/Reshape_5" type="Reshape" version="opset1">
			<data special_zero="true" />
			<input>
				<port id="0" precision="I64">
					<dim>-1</dim>
				</port>
				<port id="1" precision="I64">
					<dim>2</dim>
				</port>
			</input>
			<output>
				<port id="2" precision="I64" names="b_/time_head/_operators.0/Reshape_5_output_0">
					<dim>-1</dim>
					<dim>450</dim>
				</port>
			</output>
		</layer>
		<layer id="223" name="b_/time_head/_operators.0/GatherElements_2" type="GatherElements" version="opset6">
			<data axis="1" />
			<input>
				<port id="0" precision="FP32">
					<dim>-1</dim>
					<dim>42</dim>
				</port>
				<port id="1" precision="I64">
					<dim>-1</dim>
					<dim>450</dim>
				</port>
			</input>
			<output>
				<port id="2" precision="FP32" names="b_/time_head/_operators.0/GatherElements_2_output_0">
					<dim>-1</dim>
					<dim>450</dim>
				</port>
			</output>
		</layer>
		<layer id="224" name="Constant_821" type="Const" version="opset1">
			<data element_type="i64" shape="1" offset="122058" size="8" />
			<rt_info>
				<attribute name="precise" version="0" />
			</rt_info>
			<output>
				<port id="0" precision="I64">
					<dim>1</dim>
				</port>
			</output>
		</layer>
		<layer id="225" name="b_/time_head/_operators.0/Reshape_6" type="Reshape" version="opset1">
			<data special_zero="true" />
			<input>
				<port id="0" precision="FP32">
					<dim>-1</dim>
					<dim>450</dim>
				</port>
				<port id="1" precision="I64">
					<dim>1</dim>
				</port>
			</input>
			<output>
				<port id="2" precision="FP32" names="b_/time_head/_operators.0/Reshape_6_output_0">
					<dim>-1</dim>
				</port>
			</output>
		</layer>
		<layer id="226" name="b_time_head._operators.0.biases.2_compressed" type="Const" version="opset1">
			<data element_type="f16" shape="3600" offset="519014" size="7200" />
			<output>
				<port id="0" precision="FP16" names="b_time_head._operators.0.biases.2">
					<dim>3600</dim>
				</port>
			</output>
		</layer>
		<layer id="227" name="b_time_head._operators.0.biases.2" type="Convert" version="opset1">
			<data destination_type="f32" />
			<rt_info>
				<attribute name="decompression" version="0" />
			</rt_info>
			<input>
				<port id="0" precision="FP16">
					<dim>3600</dim>
				</port>
			</input>
			<output>
				<port id="1" precision="FP32">
					<dim>3600</dim>
				</port>
			</output>
		</layer>
		<layer id="228" name="Constant_202" type="Const" version="opset1">
			<data element_type="i64" shape="" offset="55440" size="8" />
			<output>
				<port id="0" precision="I64" />
			</output>
		</layer>
		<layer id="229" name="b_/time_head/_operators.0/Gather_6" type="Gather" version="opset8">
			<data batch_dims="0" />
			<input>
				<port id="0" precision="FP32">
					<dim>3600</dim>
				</port>
				<port id="1" precision="I64">
					<dim>-1</dim>
				</port>
				<port id="2" precision="I64" />
			</input>
			<output>
				<port id="3" precision="FP32" names="b_/time_head/_operators.0/Gather_6_output_0">
					<dim>-1</dim>
				</port>
			</output>
		</layer>
		<layer id="230" name="b_/time_head/_operators.0/LessOrEqual_3" type="LessEqual" version="opset1">
			<data auto_broadcast="numpy" />
			<input>
				<port id="0" precision="FP32">
					<dim>-1</dim>
				</port>
				<port id="1" precision="FP32">
					<dim>-1</dim>
				</port>
			</input>
			<output>
				<port id="2" precision="BOOL" names="b_/time_head/_operators.0/LessOrEqual_3_output_0">
					<dim>-1</dim>
				</port>
			</output>
		</layer>
		<layer id="231" name="b_/time_head/_operators.0/Cast_3" type="Convert" version="opset1">
			<data destination_type="i64" />
			<input>
				<port id="0" precision="BOOL">
					<dim>-1</dim>
				</port>
			</input>
			<output>
				<port id="1" precision="I64" names="b_/time_head/_operators.0/Cast_3_output_0">
					<dim>-1</dim>
				</port>
			</output>
		</layer>
		<layer id="232" name="b_/time_head/_operators.0/Add_3" type="Add" version="opset1">
			<data auto_broadcast="numpy" />
			<input>
				<port id="0" precision="I64">
					<dim>-1</dim>
				</port>
				<port id="1" precision="I64">
					<dim>-1</dim>
				</port>
			</input>
			<output>
				<port id="2" precision="I64" names="b_/time_head/_operators.0/Add_3_output_0">
					<dim>-1</dim>
				</port>
			</output>
		</layer>
		<layer id="233" name="Constant_3329" type="Const" version="opset1">
			<data element_type="i64" shape="1" offset="122066" size="8" />
			<output>
				<port id="0" precision="I64">
					<dim>1</dim>
				</port>
			</output>
		</layer>
		<layer id="234" name="b_/time_head/_operators.0/Mul_3" type="Multiply" version="opset1">
			<data auto_broadcast="numpy" />
			<input>
				<port id="0" precision="I64">
					<dim>-1</dim>
				</port>
				<port id="1" precision="I64">
					<dim>1</dim>
				</port>
			</input>
			<output>
				<port id="2" precision="I64" names="b_/time_head/_operators.0/Mul_3_output_0">
					<dim>-1</dim>
				</port>
			</output>
		</layer>
		<layer id="235" name="b_time_head._operators.0.nodes.3" type="Const" version="opset1">
			<data element_type="i64" shape="7200" offset="526214" size="57600" />
			<output>
				<port id="0" precision="I64" names="b_time_head._operators.0.nodes.3">
					<dim>7200</dim>
				</port>
			</output>
		</layer>
		<layer id="236" name="Constant_224" type="Const" version="opset1">
			<data element_type="i64" shape="" offset="55440" size="8" />
			<output>
				<port id="0" precision="I64" />
			</output>
		</layer>
		<layer id="237" name="b_/time_head/_operators.0/Gather_7" type="Gather" version="opset8">
			<data batch_dims="0" />
			<input>
				<port id="0" precision="I64">
					<dim>7200</dim>
				</port>
				<port id="1" precision="I64">
					<dim>-1</dim>
				</port>
				<port id="2" precision="I64" />
			</input>
			<output>
				<port id="3" precision="I64" names="b_/time_head/_operators.0/Gather_7_output_0">
					<dim>-1</dim>
				</port>
			</output>
		</layer>
		<layer id="238" name="b_/time_head/_operators.0/Constant_10" type="Const" version="opset1">
			<data element_type="i64" shape="2" offset="129274" size="16" />
			<rt_info>
				<attribute name="precise" version="0" />
			</rt_info>
			<output>
				<port id="0" precision="I64" names="b_/time_head/_operators.0/Constant_10_output_0">
					<dim>2</dim>
				</port>
			</output>
		</layer>
		<layer id="239" name="b_/time_head/_operators.0/Reshape_7" type="Reshape" version="opset1">
			<data special_zero="true" />
			<input>
				<port id="0" precision="I64">
					<dim>-1</dim>
				</port>
				<port id="1" precision="I64">
					<dim>2</dim>
				</port>
			</input>
			<output>
				<port id="2" precision="I64" names="b_/time_head/_operators.0/Reshape_7_output_0">
					<dim>-1</dim>
					<dim>450</dim>
				</port>
			</output>
		</layer>
		<layer id="240" name="b_/time_head/_operators.0/GatherElements_3" type="GatherElements" version="opset6">
			<data axis="1" />
			<input>
				<port id="0" precision="FP32">
					<dim>-1</dim>
					<dim>42</dim>
				</port>
				<port id="1" precision="I64">
					<dim>-1</dim>
					<dim>450</dim>
				</port>
			</input>
			<output>
				<port id="2" precision="FP32" names="b_/time_head/_operators.0/GatherElements_3_output_0">
					<dim>-1</dim>
					<dim>450</dim>
				</port>
			</output>
		</layer>
		<layer id="241" name="Constant_822" type="Const" version="opset1">
			<data element_type="i64" shape="1" offset="122058" size="8" />
			<rt_info>
				<attribute name="precise" version="0" />
			</rt_info>
			<output>
				<port id="0" precision="I64">
					<dim>1</dim>
				</port>
			</output>
		</layer>
		<layer id="242" name="b_/time_head/_operators.0/Reshape_8" type="Reshape" version="opset1">
			<data special_zero="true" />
			<input>
				<port id="0" precision="FP32">
					<dim>-1</dim>
					<dim>450</dim>
				</port>
				<port id="1" precision="I64">
					<dim>1</dim>
				</port>
			</input>
			<output>
				<port id="2" precision="FP32" names="b_/time_head/_operators.0/Reshape_8_output_0">
					<dim>-1</dim>
				</port>
			</output>
		</layer>
		<layer id="243" name="b_time_head._operators.0.biases.3_compressed" type="Const" version="opset1">
			<data element_type="f16" shape="7200" offset="583814" size="14400" />
			<output>
				<port id="0" precision="FP16" names="b_time_head._operators.0.biases.3">
					<dim>7200</dim>
				</port>
			</output>
		</layer>
		<layer id="244" name="b_time_head._operators.0.biases.3" type="Convert" version="opset1">
			<data destination_type="f32" />
			<rt_info>
				<attribute name="decompression" version="0" />
			</rt_info>
			<input>
				<port id="0" precision="FP16">
					<dim>7200</dim>
				</port>
			</input>
			<output>
				<port id="1" precision="FP32">
					<dim>7200</dim>
				</port>
			</output>
		</layer>
		<layer id="245" name="Constant_228" type="Const" version="opset1">
			<data element_type="i64" shape="" offset="55440" size="8" />
			<output>
				<port id="0" precision="I64" />
			</output>
		</layer>
		<layer id="246" name="b_/time_head/_operators.0/Gather_8" type="Gather" version="opset8">
			<data batch_dims="0" />
			<input>
				<port id="0" precision="FP32">
					<dim>7200</dim>
				</port>
				<port id="1" precision="I64">
					<dim>-1</dim>
				</port>
				<port id="2" precision="I64" />
			</input>
			<output>
				<port id="3" precision="FP32" names="b_/time_head/_operators.0/Gather_8_output_0">
					<dim>-1</dim>
				</port>
			</output>
		</layer>
		<layer id="247" name="b_/time_head/_operators.0/LessOrEqual_4" type="LessEqual" version="opset1">
			<data auto_broadcast="numpy" />
			<input>
				<port id="0" precision="FP32">
					<dim>-1</dim>
				</port>
				<port id="1" precision="FP32">
					<dim>-1</dim>
				</port>
			</input>
			<output>
				<port id="2" precision="BOOL" names="b_/time_head/_operators.0/LessOrEqual_4_output_0">
					<dim>-1</dim>
				</port>
			</output>
		</layer>
		<layer id="248" name="b_/time_head/_operators.0/Cast_4" type="Convert" version="opset1">
			<data destination_type="i64" />
			<input>
				<port id="0" precision="BOOL">
					<dim>-1</dim>
				</port>
			</input>
			<output>
				<port id="1" precision="I64" names="b_/time_head/_operators.0/Cast_4_output_0">
					<dim>-1</dim>
				</port>
			</output>
		</layer>
		<layer id="249" name="b_/time_head/_operators.0/Add_4" type="Add" version="opset1">
			<data auto_broadcast="numpy" />
			<input>
				<port id="0" precision="I64">
					<dim>-1</dim>
				</port>
				<port id="1" precision="I64">
					<dim>-1</dim>
				</port>
			</input>
			<output>
				<port id="2" precision="I64" names="b_/time_head/_operators.0/Add_4_output_0">
					<dim>-1</dim>
				</port>
			</output>
		</layer>
		<layer id="250" name="Constant_3330" type="Const" version="opset1">
			<data element_type="i64" shape="1" offset="122066" size="8" />
			<output>
				<port id="0" precision="I64">
					<dim>1</dim>
				</port>
			</output>
		</layer>
		<layer id="251" name="b_/time_head/_operators.0/Mul_4" type="Multiply" version="opset1">
			<data auto_broadcast="numpy" />
			<input>
				<port id="0" precision="I64">
					<dim>-1</dim>
				</port>
				<port id="1" precision="I64">
					<dim>1</dim>
				</port>
			</input>
			<output>
				<port id="2" precision="I64" names="b_/time_head/_operators.0/Mul_4_output_0">
					<dim>-1</dim>
				</port>
			</output>
		</layer>
		<layer id="252" name="b_time_head._operators.0.nodes.4" type="Const" version="opset1">
			<data element_type="i64" shape="14400" offset="598214" size="115200" />
			<output>
				<port id="0" precision="I64" names="b_time_head._operators.0.nodes.4">
					<dim>14400</dim>
				</port>
			</output>
		</layer>
		<layer id="253" name="Constant_250" type="Const" version="opset1">
			<data element_type="i64" shape="" offset="55440" size="8" />
			<output>
				<port id="0" precision="I64" />
			</output>
		</layer>
		<layer id="254" name="b_/time_head/_operators.0/Gather_9" type="Gather" version="opset8">
			<data batch_dims="0" />
			<input>
				<port id="0" precision="I64">
					<dim>14400</dim>
				</port>
				<port id="1" precision="I64">
					<dim>-1</dim>
				</port>
				<port id="2" precision="I64" />
			</input>
			<output>
				<port id="3" precision="I64" names="b_/time_head/_operators.0/Gather_9_output_0">
					<dim>-1</dim>
				</port>
			</output>
		</layer>
		<layer id="255" name="b_/time_head/_operators.0/Constant_13" type="Const" version="opset1">
			<data element_type="i64" shape="2" offset="129274" size="16" />
			<rt_info>
				<attribute name="precise" version="0" />
			</rt_info>
			<output>
				<port id="0" precision="I64" names="b_/time_head/_operators.0/Constant_13_output_0">
					<dim>2</dim>
				</port>
			</output>
		</layer>
		<layer id="256" name="b_/time_head/_operators.0/Reshape_9" type="Reshape" version="opset1">
			<data special_zero="true" />
			<input>
				<port id="0" precision="I64">
					<dim>-1</dim>
				</port>
				<port id="1" precision="I64">
					<dim>2</dim>
				</port>
			</input>
			<output>
				<port id="2" precision="I64" names="b_/time_head/_operators.0/Reshape_9_output_0">
					<dim>-1</dim>
					<dim>450</dim>
				</port>
			</output>
		</layer>
		<layer id="257" name="b_/time_head/_operators.0/GatherElements_4" type="GatherElements" version="opset6">
			<data axis="1" />
			<input>
				<port id="0" precision="FP32">
					<dim>-1</dim>
					<dim>42</dim>
				</port>
				<port id="1" precision="I64">
					<dim>-1</dim>
					<dim>450</dim>
				</port>
			</input>
			<output>
				<port id="2" precision="FP32" names="b_/time_head/_operators.0/GatherElements_4_output_0">
					<dim>-1</dim>
					<dim>450</dim>
				</port>
			</output>
		</layer>
		<layer id="258" name="Constant_823" type="Const" version="opset1">
			<data element_type="i64" shape="1" offset="122058" size="8" />
			<rt_info>
				<attribute name="precise" version="0" />
			</rt_info>
			<output>
				<port id="0" precision="I64">
					<dim>1</dim>
				</port>
			</output>
		</layer>
		<layer id="259" name="b_/time_head/_operators.0/Reshape_10" type="Reshape" version="opset1">
			<data special_zero="true" />
			<input>
				<port id="0" precision="FP32">
					<dim>-1</dim>
					<dim>450</dim>
				</port>
				<port id="1" precision="I64">
					<dim>1</dim>
				</port>
			</input>
			<output>
				<port id="2" precision="FP32" names="b_/time_head/_operators.0/Reshape_10_output_0">
					<dim>-1</dim>
				</port>
			</output>
		</layer>
		<layer id="260" name="b_time_head._operators.0.biases.4_compressed" type="Const" version="opset1">
			<data element_type="f16" shape="14400" offset="713414" size="28800" />
			<output>
				<port id="0" precision="FP16" names="b_time_head._operators.0.biases.4">
					<dim>14400</dim>
				</port>
			</output>
		</layer>
		<layer id="261" name="b_time_head._operators.0.biases.4" type="Convert" version="opset1">
			<data destination_type="f32" />
			<rt_info>
				<attribute name="decompression" version="0" />
			</rt_info>
			<input>
				<port id="0" precision="FP16">
					<dim>14400</dim>
				</port>
			</input>
			<output>
				<port id="1" precision="FP32">
					<dim>14400</dim>
				</port>
			</output>
		</layer>
		<layer id="262" name="Constant_254" type="Const" version="opset1">
			<data element_type="i64" shape="" offset="55440" size="8" />
			<output>
				<port id="0" precision="I64" />
			</output>
		</layer>
		<layer id="263" name="b_/time_head/_operators.0/Gather_10" type="Gather" version="opset8">
			<data batch_dims="0" />
			<input>
				<port id="0" precision="FP32">
					<dim>14400</dim>
				</port>
				<port id="1" precision="I64">
					<dim>-1</dim>
				</port>
				<port id="2" precision="I64" />
			</input>
			<output>
				<port id="3" precision="FP32" names="b_/time_head/_operators.0/Gather_10_output_0">
					<dim>-1</dim>
				</port>
			</output>
		</layer>
		<layer id="264" name="b_/time_head/_operators.0/LessOrEqual_5" type="LessEqual" version="opset1">
			<data auto_broadcast="numpy" />
			<input>
				<port id="0" precision="FP32">
					<dim>-1</dim>
				</port>
				<port id="1" precision="FP32">
					<dim>-1</dim>
				</port>
			</input>
			<output>
				<port id="2" precision="BOOL" names="b_/time_head/_operators.0/LessOrEqual_5_output_0">
					<dim>-1</dim>
				</port>
			</output>
		</layer>
		<layer id="265" name="b_/time_head/_operators.0/Cast_5" type="Convert" version="opset1">
			<data destination_type="i64" />
			<input>
				<port id="0" precision="BOOL">
					<dim>-1</dim>
				</port>
			</input>
			<output>
				<port id="1" precision="I64" names="b_/time_head/_operators.0/Cast_5_output_0">
					<dim>-1</dim>
				</port>
			</output>
		</layer>
		<layer id="266" name="b_/time_head/_operators.0/Add_5" type="Add" version="opset1">
			<data auto_broadcast="numpy" />
			<input>
				<port id="0" precision="I64">
					<dim>-1</dim>
				</port>
				<port id="1" precision="I64">
					<dim>-1</dim>
				</port>
			</input>
			<output>
				<port id="2" precision="I64" names="b_/time_head/_operators.0/Add_5_output_0">
					<dim>-1</dim>
				</port>
			</output>
		</layer>
		<layer id="267" name="Constant_272" type="Const" version="opset1">
			<data element_type="i64" shape="" offset="55440" size="8" />
			<output>
				<port id="0" precision="I64" />
			</output>
		</layer>
		<layer id="268" name="b_/time_head/_operators.0/Gather_11" type="Gather" version="opset8">
			<data batch_dims="0" />
			<input>
				<port id="0" precision="FP32">
					<dim>28800</dim>
					<dim>1</dim>
				</port>
				<port id="1" precision="I64">
					<dim>-1</dim>
				</port>
				<port id="2" precision="I64" />
			</input>
			<output>
				<port id="3" precision="FP32" names="b_/time_head/_operators.0/Gather_11_output_0">
					<dim>-1</dim>
					<dim>1</dim>
				</port>
			</output>
		</layer>
		<layer id="269" name="Constant_3360" type="Const" version="opset1">
			<data element_type="i64" shape="3" offset="401090" size="24" />
			<rt_info>
				<attribute name="precise" version="0" />
			</rt_info>
			<output>
				<port id="0" precision="I64">
					<dim>3</dim>
				</port>
			</output>
		</layer>
		<layer id="270" name="b_/time_head/_operators.0/Reshape_12" type="Reshape" version="opset1">
			<data special_zero="false" />
			<input>
				<port id="0" precision="FP32">
					<dim>-1</dim>
					<dim>1</dim>
				</port>
				<port id="1" precision="I64">
					<dim>3</dim>
				</port>
			</input>
			<output>
				<port id="2" precision="FP32" names="b_/time_head/_operators.0/Reshape_12_output_0">
					<dim>-1</dim>
					<dim>1</dim>
					<dim>450</dim>
				</port>
			</output>
		</layer>
		<layer id="271" name="b_/time_head/_operators.0/ReduceSum" type="ReduceSum" version="opset1">
			<data keep_dims="false" />
			<input>
				<port id="0" precision="FP32">
					<dim>-1</dim>
					<dim>1</dim>
					<dim>450</dim>
				</port>
				<port id="1" precision="I64">
					<dim>1</dim>
				</port>
			</input>
			<output>
				<port id="2" precision="FP32" names="b_/time_head/_operators.0/ReduceSum_output_0">
					<dim>-1</dim>
					<dim>1</dim>
				</port>
			</output>
		</layer>
		<layer id="272" name="b_/Concat" type="Concat" version="opset1">
			<data axis="1" />
			<input>
				<port id="0" precision="FP32">
					<dim>-1</dim>
					<dim>1</dim>
				</port>
				<port id="1" precision="FP32">
					<dim>-1</dim>
					<dim>1</dim>
				</port>
			</input>
			<output>
				<port id="2" precision="FP32" names="b_predictions">
					<dim>-1</dim>
					<dim>2</dim>
				</port>
			</output>
		</layer>
		<layer id="273" name="ensemble_sum" type="Add" version="opset1">
			<data auto_broadcast="numpy" />
			<input>
				<port id="0" precision="FP32">
					<dim>-1</dim>
					<dim>2</dim>
				</port>
				<port id="1" precision="FP32">
					<dim>-1</dim>
					<dim>2</dim>
				</port>
			</input>
			<output>
				<port id="2" precision="FP32" names="ensemble_sum">
					<dim>-1</dim>
					<dim>2</dim>
				</port>
			</output>
		</layer>
		<layer id="274" name="Constant_3331_compressed" type="Const" version="opset1">
			<data element_type="f16" shape="1, 1" offset="742214" size="2" />
			<output>
				<port id="0" precision="FP16">
					<dim>1</dim>
					<dim>1</dim>
				</port>
			</output>
		</layer>
		<layer id="275" name="Constant_3331" type="Convert" version="opset1">
			<data destination_type="f32" />
			<rt_info>
				<attribute name="decompression" version="0" />
			</rt_info>
			<input>
				<port id="0" precision="FP16">
					<dim>1</dim>
					<dim>1</dim>
				</port>
			</input>
			<output>
				<port id="1" precision="FP32">
					<dim>1</dim>
					<dim>1</dim>
				</port>
			</output>
		</layer>
		<layer id="276" name="predictions" type="Multiply" version="opset1">
			<data auto_broadcast="numpy" />
			<input>
				<port id="0" precision="FP32">
					<dim>-1</dim>
					<dim>2</dim>
				</port>
				<port id="1" precision="FP32">
					<dim>1</dim>
					<dim>1</dim>
				</port>
			</input>
			<output>
				<port id="2" precision="FP32" names="predictions">
					<dim>-1</dim>
					<dim>2</dim>
				</port>
			</output>
		</layer>
		<layer id="277" name="predictions/sink_port_0" type="Result" version="opset1" output_names="predictions">
			<input>
				<port id="0" precision="FP32">
					<dim>-1</dim>
					<dim>2</dim>
				</port>
			</input>
		</layer>
	</layers>
	<edges>
		<edge from-layer="0" from-port="0" to-layer="102" to-port="0" />
		<edge from-layer="0" from-port="0" to-layer="119" to-port="0" />
		<edge from-layer="0" from-port="0" to-layer="5" to-port="0" />
		<edge from-layer="0" from-port="0" to-layer="85" to-port="0" />
		<edge from-layer="0" from-port="0" to-layer="257" to-port="0" />
		<edge from-layer="0" from-port="0" to-layer="240" to-port="0" />
		<edge from-layer="0" from-port="0" to-layer="223" to-port="0" />
		<edge from-layer="0" from-port="0" to-layer="136" to-port="0" />
		<edge from-layer="0" from-port="0" to-layer="206" to-port="0" />
		<edge from-layer="0" from-port="0" to-layer="189" to-port="0" />
		<edge from-layer="0" from-port="0" to-layer="173" to-port="0" />
		<edge from-layer="0" from-port="0" to-layer="153" to-port="0" />
		<edge from-layer="0" from-port="0" to-layer="70" to-port="0" />
		<edge from-layer="0" from-port="0" to-layer="24" to-port="0" />
		<edge from-layer="1" from-port="0" to-layer="2" to-port="0" />
		<edge from-layer="2" from-port="1" to-layer="51" to-port="0" />
		<edge from-layer="3" from-port="0" to-layer="4" to-port="0" />
		<edge from-layer="4" from-port="1" to-layer="5" to-port="1" />
		<edge from-layer="5" from-port="2" to-layer="8" to-port="0" />
		<edge from-layer="6" from-port="0" to-layer="7" to-port="0" />
		<edge from-layer="7" from-port="1" to-layer="8" to-port="1" />
		<edge from-layer="8" from-port="2" to-layer="9" to-port="0" />
		<edge from-layer="9" from-port="1" to-layer="12" to-port="0" />
		<edge from-layer="10" from-port="0" to-layer="11" to-port="0" />
		<edge from-layer="11" from-port="1" to-layer="12" to-port="1" />
		<edge from-layer="12" from-port="2" to-layer="15" to-port="0" />
		<edge from-layer="13" from-port="0" to-layer="14" to-port="0" />
		<edge from-layer="14" from-port="1" to-layer="15" to-port="1" />
		<edge from-layer="15" from-port="2" to-layer="16" to-port="0" />
		<edge from-layer="16" from-port="1" to-layer="18" to-port="0" />
		<edge from-layer="17" from-port="0" to-layer="18" to-port="1" />
		<edge from-layer="18" from-port="2" to-layer="21" to-port="0" />
		<edge from-layer="19" from-port="0" to-layer="20" to-port="0" />
		<edge from-layer="20" from-port="1" to-layer="21" to-port="1" />
		<edge from-layer="21" from-port="2" to-layer="41" to-port="0" />
		<edge from-layer="22" from-port="0" to-layer="23" to-port="0" />
		<edge from-layer="23" from-port="1" to-layer="24" to-port="1" />
		<edge from-layer="24" from-port="2" to-layer="27" to-port="0" />
		<edge from-layer="25" from-port="0" to-layer="26" to-port="0" />
		<edge from-layer="26" from-port="1" to-layer="27" to-port="1" />
		<edge from-layer="27" from-port="2" to-layer="28" to-port="0" />
		<edge from-layer="28" from-port="1" to-layer="31" to-port="0" />
		<edge from-layer="29" from-port="0" to-layer="30" to-port="0" />
		<edge from-layer="30" from-port="1" to-layer="31" to-port="1" />
		<edge from-layer="31" from-port="2" to-layer="34" to-port="0" />
		<edge from-layer="32" from-port="0" to-layer="33" to-port="0" />
		<edge from-layer="33" from-port="1" to-layer="34" to-port="1" />
		<edge from-layer="34" from-port="2" to-layer="35" to-port="0" />
		<edge from-layer="35" from-port="1" to-layer="38" to-port="0" />
		<edge from-layer="36" from-port="0" to-layer="37" to-port="0" />
		<edge from-layer="37" from-port="1" to-layer="38" to-port="1" />
		<edge from-layer="38" from-port="2" to-layer="40" to-port="0" />
		<edge from-layer="39" from-port="0" to-layer="40" to-port="1" />
		<edge from-layer="40" from-port="2" to-layer="41" to-port="1" />
		<edge from-layer="41" from-port="2" to-layer="44" to-port="0" />
		<edge from-layer="42" from-port="0" to-layer="43" to-port="0" />
		<edge from-layer="43" from-port="1" to-layer="44" to-port="1" />
		<edge from-layer="44" from-port="2" to-layer="47" to-port="0" />
		<edge from-layer="45" from-port="0" to-layer="46" to-port="0" />
		<edge from-layer="46" from-port="1" to-layer="47" to-port="1" />
		<edge from-layer="47" from-port="2" to-layer="57" to-port="0" />
		<edge from-layer="47" from-port="2" to-layer="50" to-port="0" />
		<edge from-layer="48" from-port="0" to-layer="50" to-port="1" />
		<edge from-layer="49" from-port="0" to-layer="50" to-port="2" />
		<edge from-layer="50" from-port="3" to-layer="51" to-port="1" />
		<edge from-layer="51" from-port="2" to-layer="52" to-port="0" />
		<edge from-layer="52" from-port="1" to-layer="54" to-port="0" />
		<edge from-layer="53" from-port="0" to-layer="54" to-port="1" />
		<edge from-layer="54" from-port="2" to-layer="65" to-port="0" />
		<edge from-layer="55" from-port="0" to-layer="57" to-port="1" />
		<edge from-layer="56" from-port="0" to-layer="57" to-port="2" />
		<edge from-layer="57" from-port="3" to-layer="58" to-port="0" />
		<edge from-layer="58" from-port="1" to-layer="61" to-port="0" />
		<edge from-layer="59" from-port="0" to-layer="60" to-port="0" />
		<edge from-layer="60" from-port="1" to-layer="61" to-port="1" />
		<edge from-layer="61" from-port="2" to-layer="62" to-port="0" />
		<edge from-layer="62" from-port="1" to-layer="64" to-port="0" />
		<edge from-layer="63" from-port="0" to-layer="64" to-port="1" />
		<edge from-layer="64" from-port="2" to-layer="65" to-port="1" />
		<edge from-layer="65" from-port="2" to-layer="273" to-port="0" />
		<edge from-layer="66" from-port="0" to-layer="67" to-port="0" />
		<edge from-layer="67" from-port="1" to-layer="164" to-port="0" />
		<edge from-layer="68" from-port="0" to-layer="70" to-port="1" />
		<edge from-layer="69" from-port="0" to-layer="70" to-port="2" />
		<edge from-layer="70" from-port="3" to-layer="72" to-port="0" />
		<edge from-layer="71" from-port="0" to-layer="72" to-port="1" />
		<edge from-layer="72" from-port="2" to-layer="73" to-port="0" />
		<edge from-layer="73" from-port="1" to-layer="75" to-port="0" />
		<edge from-layer="74" from-port="0" to-layer="75" to-port="1" />
		<edge from-layer="75" from-port="2" to-layer="77" to-port="0" />
		<edge from-layer="76" from-port="0" to-layer="77" to-port="1" />
		<edge from-layer="77" from-port="2" to-layer="91" to-port="1" />
		<edge from-layer="77" from-port="2" to-layer="82" to-port="1" />
		<edge from-layer="77" from-port="2" to-layer="79" to-port="0" />
		<edge from-layer="78" from-port="0" to-layer="79" to-port="1" />
		<edge from-layer="79" from-port="2" to-layer="94" to-port="0" />
		<edge from-layer="80" from-port="0" to-layer="82" to-port="0" />
		<edge from-layer="81" from-port="0" to-layer="82" to-port="2" />
		<edge from-layer="82" from-port="3" to-layer="84" to-port="0" />
		<edge from-layer="83" from-port="0" to-layer="84" to-port="1" />
		<edge from-layer="84" from-port="2" to-layer="85" to-port="1" />
		<edge from-layer="85" from-port="2" to-layer="87" to-port="0" />
		<edge from-layer="86" from-port="0" to-layer="87" to-port="1" />
		<edge from-layer="87" from-port="2" to-layer="92" to-port="0" />
		<edge from-layer="88" from-port="0" to-layer="89" to-port="0" />
		<edge from-layer="89" from-port="1" to-layer="91" to-port="0" />
		<edge from-layer="90" from-port="0" to-layer="91" to-port="2" />
		<edge from-layer="91" from-port="3" to-layer="92" to-port="1" />
		<edge from-layer="92" from-port="2" to-layer="93" to-port="0" />
		<edge from-layer="93" from-port="1" to-layer="94" to-port="1" />
		<edge from-layer="94" from-port="2" to-layer="108" to-port="1" />
		<edge from-layer="94" from-port="2" to-layer="99" to-port="1" />
		<edge from-layer="94" from-port="2" to-layer="96" to-port="0" />
		<edge from-layer="95" from-port="0" to-layer="96" to-port="1" />
		<edge from-layer="96" from-port="2" to-layer="111" to-port="0" />
		<edge from-layer="97" from-port="0" to-layer="99" to-port="0" />
		<edge from-layer="98" from-port="0" to-layer="99" to-port="2" />
		<edge from-layer="99" from-port="3" to-layer="101" to-port="0" />
		<edge from-layer="100" from-port="0" to-layer="101" to-port="1" />
		<edge from-layer="101" from-port="2" to-layer="102" to-port="1" />
		<edge from-layer="102" from-port="2" to-layer="104" to-port="0" />
		<edge from-layer="103" from-port="0" to-layer="104" to-port="1" />
		<edge from-layer="104" from-port="2" to-layer="109" to-port="0" />
		<edge from-layer="105" from-port="0" to-layer="106" to-port="0" />
		<edge from-layer="106" from-port="1" to-layer="108" to-port="0" />
		<edge from-layer="107" from-port="0" to-layer="108" to-port="2" />
		<edge from-layer="108" from-port="3" to-layer="109" to-port="1" />
		<edge from-layer="109" from-port="2" to-layer="110" to-port="0" />
		<edge from-layer="110" from-port="1" to-layer="111" to-port="1" />
		<edge from-layer="111" from-port="2" to-layer="116" to-port="1" />
		<edge from-layer="111" from-port="2" to-layer="125" to-port="1" />
		<edge from-layer="111" from-port="2" to-layer="113" to-port="0" />
		<edge from-layer="112" from-port="0" to-layer="113" to-port="1" />
		<edge from-layer="113" from-port="2" to-layer="128" to-port="0" />
		<edge from-layer="114" from-port="0" to-layer="116" to-port="0" />
		<edge from-layer="115" from-port="0" to-layer="116" to-port="2" />
		<edge from-layer="116" from-port="3" to-layer="118" to-port="0" />
		<edge from-layer="117" from-port="0" to-layer="118" to-port="1" />
		<edge from-layer="118" from-port="2" to-layer="119" to-port="1" />
		<edge from-layer="119" from-port="2" to-layer="121" to-port="0" />
		<edge from-layer="120" from-port="0" to-layer="121" to-port="1" />
		<edge from-layer="121" from-port="2" to-layer="126" to-port="0" />
		<edge from-layer="122" from-port="0" to-layer="123" to-port="0" />
		<edge from-layer="123" from-port="1" to-layer="125" to-port="0" />
		<edge from-layer="124" from-port="0" to-layer="125" to-port="2" />
		<edge from-layer="125" from-port="3" to-layer="126" to-port="1" />
		<edge from-layer="126" from-port="2" to-layer="127" to-port="0" />
		<edge from-layer="127" from-port="1" to-layer="128" to-port="1" />
		<edge from-layer="128" from-port="2" to-layer="130" to-port="0" />
		<edge from-layer="128" from-port="2" to-layer="133" to-port="1" />
		<edge from-layer="128" from-port="2" to-layer="142" to-port="1" />
		<edge from-layer="129" from-port="0" to-layer="130" to-port="1" />
		<edge from-layer="130" from-port="2" to-layer="145" to-port="0" />
		<edge from-layer="131" from-port="0" to-layer="133" to-port="0" />
		<edge from-layer="132" from-port="0" to-layer="133" to-port="2" />
		<edge from-layer="133" from-port="3" to-layer="135" to-port="0" />
		<edge from-layer="134" from-port="0" to-layer="135" to-port="1" />
		<edge from-layer="135" from-port="2" to-layer="136" to-port="1" />
		<edge from-layer="136" from-port="2" to-layer="138" to-port="0" />
		<edge from-layer="137" from-port="0" to-layer="138" to-port="1" />
		<edge from-layer="138" from-port="2" to-layer="143" to-port="0" />
		<edge from-layer="139" from-port="0" to-layer="140" to-port="0" />
		<edge from-layer="140" from-port="1" to-layer="142" to-port="0" />
		<edge from-layer="141" from-port="0" to-layer="142" to-port="2" />
		<edge from-layer="142" from-port="3" to-layer="143" to-port="1" />
		<edge from-layer="143" from-port="2" to-layer="144" to-port="0" />
		<edge from-layer="144" from-port="1" to-layer="145" to-port="1" />
		<edge from-layer="145" from-port="2" to-layer="147" to-port="0" />
		<edge from-layer="145" from-port="2" to-layer="150" to-port="1" />
		<edge from-layer="145" from-port="2" to-layer="159" to-port="1" />
		<edge from-layer="146" from-port="0" to-layer="147" to-port="1" />
		<edge from-layer="147" from-port="2" to-layer="162" to-port="0" />
		<edge from-layer="148" from-port="0" to-layer="150" to-port="0" />
		<edge from-layer="149" from-port="0" to-layer="150" to-port="2" />
		<edge from-layer="150" from-port="3" to-layer="152" to-port="0" />
		<edge from-layer="151" from-port="0" to-layer="152" to-port="1" />
		<edge from-layer="152" from-port="2" to-layer="153" to-port="1" />
		<edge from-layer="153" from-port="2" to-layer="155" to-port="0" />
		<edge from-layer="154" from-port="0" to-layer="155" to-port="1" />
		<edge from-layer="155" from-port="2" to-layer="160" to-port="0" />
		<edge from-layer="156" from-port="0" to-layer="157" to-port="0" />
		<edge from-layer="157" from-port="1" to-layer="159" to-port="0" />
		<edge from-layer="158" from-port="0" to-layer="159" to-port="2" />
		<edge from-layer="159" from-port="3" to-layer="160" to-port="1" />
		<edge from-layer="160" from-port="2" to-layer="161" to-port="0" />
		<edge from-layer="161" from-port="1" to-layer="162" to-port="1" />
		<edge from-layer="162" from-port="2" to-layer="164" to-port="1" />
		<edge from-layer="163" from-port="0" to-layer="164" to-port="2" />
		<edge from-layer="164" from-port="3" to-layer="166" to-port="0" />
		<edge from-layer="165" from-port="0" to-layer="166" to-port="1" />
		<edge from-layer="166" from-port="2" to-layer="168" to-port="0" />
		<edge from-layer="167" from-port="0" to-layer="168" to-port="1" />
		<edge from-layer="167" from-port="0" to-layer="271" to-port="1" />
		<edge from-layer="168" from-port="2" to-layer="272" to-port="0" />
		<edge from-layer="169" from-port="0" to-layer="170" to-port="0" />
		<edge from-layer="170" from-port="1" to-layer="268" to-port="0" />
		<edge from-layer="171" from-port="0" to-layer="173" to-port="1" />
		<edge from-layer="172" from-port="0" to-layer="173" to-port="2" />
		<edge from-layer="173" from-port="3" to-layer="176" to-port="0" />
		<edge from-layer="174" from-port="0" to-layer="175" to-port="0" />
		<edge from-layer="175" from-port="1" to-layer="176" to-port="1" />
		<edge from-layer="176" from-port="2" to-layer="177" to-port="0" />
		<edge from-layer="177" from-port="1" to-layer="179" to-port="0" />
		<edge from-layer="178" from-port="0" to-layer="179" to-port="1" />
		<edge from-layer="179" from-port="2" to-layer="181" to-port="0" />
		<edge from-layer="180" from-port="0" to-layer="181" to-port="1" />
		<edge from-layer="181" from-port="2" to-layer="183" to-port="0" />
		<edge from-layer="181" from-port="2" to-layer="195" to-port="1" />
		<edge from-layer="181" from-port="2" to-layer="186" to-port="1" />
		<edge from-layer="182" from-port="0" to-layer="183" to-port="1" />
		<edge from-layer="183" from-port="2" to-layer="198" to-port="0" />
		<edge from-layer="184" from-port="0" to-layer="186" to-port="0" />
		<edge from-layer="185" from-port="0" to-layer="186" to-port="2" />
		<edge from-layer="186" from-port="3" to-layer="188" to-port="0" />
		<edge from-layer="187" from-port="0" to-layer="188" to-port="1" />
		<edge from-layer="188" from-port="2" to-layer="189" to-port="1" />
		<edge from-layer="189" from-port="2" to-layer="191" to-port="0" />
		<edge from-layer="190" from-port="0" to-layer="191" to-port="1" />
		<edge from-layer="191" from-port="2" to-layer="196" to-port="0" />
		<edge from-layer="192" from-port="0" to-layer="193" to-port="0" />
		<edge from-layer="193" from-port="1" to-layer="195" to-port="0" />
		<edge from-layer="194" from-port="0" to-layer="195" to-port="2" />
		<edge from-layer="195" from-port="3" to-layer="196" to-port="1" />
		<edge from-layer="196" from-port="2" to-layer="197" to-port="0" />
		<edge from-layer="197" from-port="1" to-layer="198" to-port="1" />
		<edge from-layer="198" from-port="2" to-layer="200" to-port="0" />
		<edge from-layer="198" from-port="2" to-layer="203" to-port="1" />
		<edge from-layer="198" from-port="2" to-layer="212" to-port="1" />
		<edge from-layer="199" from-port="0" to-layer="200" to-port="1" />
		<edge from-layer="200" from-port="2" to-layer="215" to-port="0" />
		<edge from-layer="201" from-port="0" to-layer="203" to-port="0" />
		<edge from-layer="202" from-port="0" to-layer="203" to-port="2" />
		<edge from-layer="203" from-port="3" to-layer="205" to-port="0" />
		<edge from-layer="204" from-port="0" to-layer="205" to-port="1" />
		<edge from-layer="205" from-port="2" to-layer="206" to-port="1" />
		<edge from-layer="206" from-port="2" to-layer="208" to-port="0" />
		<edge from-layer="207" from-port="0" to-layer="208" to-port="1" />
		<edge from-layer="208" from-port="2" to-layer="213" to-port="0" />
		<edge from-layer="209" from-port="0" to-layer="210" to-port="0" />
		<edge from-layer="210" from-port="1" to-layer="212" to-port="0" />
		<edge from-layer="211" from-port="0" to-layer="212" to-port="2" />
		<edge from-layer="212" from-port="3" to-layer="213" to-port="1" />
		<edge from-layer="213" from-port="2" to-layer="214" to-port="0" />
		<edge from-layer="214" from-port="1" to-layer="215" to-port="1" />
		<edge from-layer="215" from-port="2" to-layer="220" to-port="1" />
		<edge from-layer="215" from-port="2" to-layer="229" to-port="1" />
		<edge from-layer="215" from-port="2" to-layer="217" to-port="0" />
		<edge from-layer="216" from-port="0" to-layer="217" to-port="1" />
		<edge from-layer="217" from-port="2" to-layer="232" to-port="0" />
		<edge from-layer="218" from-port="0" to-layer="220" to-port="0" />
		<edge from-layer="219" from-port="0" to-layer="220" to-port="2" />
		<edge from-layer="220" from-port="3" to-layer="222" to-port="0" />
		<edge from-layer="221" from-port="0" to-layer="222" to-port="1" />
		<edge from-layer="222" from-port="2" to-layer="223" to-port="1" />
		<edge from-layer="223" from-port="2" to-layer="225" to-port="0" />
		<edge from-layer="224" from-port="0" to-layer="225" to-port="1" />
		<edge from-layer="225" from-port="2" to-layer="230" to-port="0" />
		<edge from-layer="226" from-port="0" to-layer="227" to-port="0" />
		<edge from-layer="227" from-port="1" to-layer="229" to-port="0" />
		<edge from-layer="228" from-port="0" to-layer="229" to-port="2" />
		<edge from-layer="229" from-port="3" to-layer="230" to-port="1" />
		<edge from-layer="230" from-port="2" to-layer="231" to-port="0" />
		<edge from-layer="231" from-port="1" to-layer="232" to-port="1" />
		<edge from-layer="232" from-port="2" to-layer="234" to-port="0" />
		<edge from-layer="232" from-port="2" to-layer="237" to-port="1" />
		<edge from-layer="232" from-port="2" to-layer="246" to-port="1" />
		<edge from-layer="233" from-port="0" to-layer="234" to-port="1" />
		<edge from-layer="234" from-port="2" to-layer="249" to-port="0" />
		<edge from-layer="235" from-port="0" to-layer="237" to-port="0" />
		<edge from-layer="236" from-port="0" to-layer="237" to-port="2" />
		<edge from-layer="237" from-port="3" to-layer="239" to-port="0" />
		<edge from-layer="238" from-port="0" to-layer="239" to-port="1" />
		<edge from-layer="239" from-port="2" to-layer="240" to-port="1" />
		<edge from-layer="240" from-port="2" to-layer="242" to-port="0" />
		<edge from-layer="241" from-port="0" to-layer="242" to-port="1" />
		<edge from-layer="242" from-port="2" to-layer="247" to-port="0" />
		<edge from-layer="243" from-port="0" to-layer="244" to-port="0" />
		<edge from-layer="244" from-port="1" to-layer="246" to-port="0" />
		<edge from-layer="245" from-port="0" to-layer="246" to-port="2" />
		<edge from-layer="246" from-port="3" to-layer="247" to-port="1" />
		<edge from-layer="247" from-port="2" to-layer="248" to-port="0" />
		<edge from-layer="248" from-port="1" to-layer="249" to-port="1" />
		<edge from-layer="249" from-port="2" to-layer="263" to-port="1" />
		<edge from-layer="249" from-port="2" to-layer="254" to-port="1" />
		<edge from-layer="249" from-port="2" to-layer="251" to-port="0" />
		<edge from-layer="250" from-port="0" to-layer="251" to-port="1" />
		<edge from-layer="251" from-port="2" to-layer="266" to-port="0" />
		<edge from-layer="252" from-port="0" to-layer="254" to-port="0" />
		<edge from-layer="253" from-port="0" to-layer="254" to-port="2" />
		<edge from-layer="254" from-port="3" to-layer="256" to-port="0" />
		<edge from-layer="255" from-port="0" to-layer="256" to-port="1" />
		<edge from-layer="256" from-port="2" to-layer="257" to-port="1" />
		<edge from-layer="257" from-port="2" to-layer="259" to-port="0" />
		<edge from-layer="258" from-port="0" to-layer="259" to-port="1" />
		<edge from-layer="259" from-port="2" to-layer="264" to-port="0" />
		<edge from-layer="260" from-port="0" to-layer="261" to-port="0" />
		<edge from-layer="261" from-port="1" to-layer="263" to-port="0" />
		<edge from-layer="262" from-port="0" to-layer="263" to-port="2" />
		<edge from-layer="263" from-port="3" to-layer="264" to-port="1" />
		<edge from-layer="264" from-port="2" to-layer="265" to-port="0" />
		<edge from-layer="265" from-port="1" to-layer="266" to-port="1" />
		<edge from-layer="266" from-port="2" to-layer="268" to-port="1" />
		<edge from-layer="267" from-port="0" to-layer="268" to-port="2" />
		<edge from-layer="268" from-port="3" to-layer="270" to-port="0" />
		<edge from-layer="269" from-port="0" to-layer="270" to-port="1" />
		<edge from-layer="270" from-port="2" to-layer="271" to-port="0" />
		<edge from-layer="271" from-port="2" to-layer="272" to-port="1" />
		<edge from-layer="272" from-port="2" to-layer="273" to-port="1" />
		<edge from-layer="273" from-port="2" to-layer="276" to-port="0" />
		<edge from-layer="274" from-port="0" to-layer="275" to-port="0" />
		<edge from-layer="275" from-port="1" to-layer="276" to-port="1" />
		<edge from-layer="276" from-port="2" to-layer="277" to-port="0" />
	</edges>
	<rt_info>
		<info name="OpenVINO Runtime" value="2026.2.1-21919-ede283a88e3-releases/2026/2" />
		<Runtime_version value="2026.2.1-21919-ede283a88e3-releases/2026/2" />
		<conversion_parameters>
			<input_model value="DIR/evo1.3.onnx" />
			<is_python_object value="False" />
		</conversion_parameters>
	</rt_info>
</net>
